training:
	time_start: 9.2.2019: 14:16.9
	time_end: 10.2.2019: 10:34.56

loss:
	last_training: (20, 48.40649958583287)
	min_training: (12, 4.160778196334839)
	min_testing: (20, 80.86942215983073)
	last_testing: (20, 80.86942215983073)

network: 
__________________________________________________________________________________________________
Layer (type)                    Output Shape         Param #     Connected to                     
==================================================================================================
inp_1s (InputLayer)             (None, 4096, 2)      0                                            
__________________________________________________________________________________________________
inp_2s (InputLayer)             (None, 4096, 2)      0                                            
__________________________________________________________________________________________________
inp_4s (InputLayer)             (None, 4096, 2)      0                                            
__________________________________________________________________________________________________
inp_8s (InputLayer)             (None, 4096, 2)      0                                            
__________________________________________________________________________________________________
inp_16s (InputLayer)            (None, 4096, 2)      0                                            
__________________________________________________________________________________________________
inp_32s (InputLayer)            (None, 4096, 2)      0                                            
__________________________________________________________________________________________________
inp_64s (InputLayer)            (None, 4096, 2)      0                                            
__________________________________________________________________________________________________
conv1d_1 (Conv1D)               (None, 4081, 16)     528         inp_1s[0][0]                     
__________________________________________________________________________________________________
conv1d_2 (Conv1D)               (None, 4065, 16)     1040        inp_2s[0][0]                     
__________________________________________________________________________________________________
conv1d_3 (Conv1D)               (None, 4033, 16)     2064        inp_4s[0][0]                     
__________________________________________________________________________________________________
conv1d_4 (Conv1D)               (None, 3969, 16)     4112        inp_8s[0][0]                     
__________________________________________________________________________________________________
conv1d_5 (Conv1D)               (None, 3841, 16)     8208        inp_16s[0][0]                    
__________________________________________________________________________________________________
conv1d_6 (Conv1D)               (None, 3585, 16)     16400       inp_32s[0][0]                    
__________________________________________________________________________________________________
conv1d_7 (Conv1D)               (None, 3073, 16)     32784       inp_64s[0][0]                    
__________________________________________________________________________________________________
conv1d_8 (Conv1D)               (None, 4066, 32)     8224        conv1d_1[0][0]                   
__________________________________________________________________________________________________
conv1d_9 (Conv1D)               (None, 4034, 32)     16416       conv1d_2[0][0]                   
__________________________________________________________________________________________________
conv1d_10 (Conv1D)              (None, 3970, 32)     32800       conv1d_3[0][0]                   
__________________________________________________________________________________________________
conv1d_11 (Conv1D)              (None, 3842, 32)     65568       conv1d_4[0][0]                   
__________________________________________________________________________________________________
conv1d_12 (Conv1D)              (None, 3586, 32)     131104      conv1d_5[0][0]                   
__________________________________________________________________________________________________
conv1d_13 (Conv1D)              (None, 3074, 32)     262176      conv1d_6[0][0]                   
__________________________________________________________________________________________________
conv1d_14 (Conv1D)              (None, 2050, 32)     524320      conv1d_7[0][0]                   
__________________________________________________________________________________________________
max_pooling1d_1 (MaxPooling1D)  (None, 1016, 32)     0           conv1d_8[0][0]                   
__________________________________________________________________________________________________
max_pooling1d_2 (MaxPooling1D)  (None, 1008, 32)     0           conv1d_9[0][0]                   
__________________________________________________________________________________________________
max_pooling1d_3 (MaxPooling1D)  (None, 992, 32)      0           conv1d_10[0][0]                  
__________________________________________________________________________________________________
max_pooling1d_4 (MaxPooling1D)  (None, 960, 32)      0           conv1d_11[0][0]                  
__________________________________________________________________________________________________
max_pooling1d_5 (MaxPooling1D)  (None, 896, 32)      0           conv1d_12[0][0]                  
__________________________________________________________________________________________________
max_pooling1d_6 (MaxPooling1D)  (None, 768, 32)      0           conv1d_13[0][0]                  
__________________________________________________________________________________________________
max_pooling1d_7 (MaxPooling1D)  (None, 512, 32)      0           conv1d_14[0][0]                  
__________________________________________________________________________________________________
flatten_1 (Flatten)             (None, 32512)        0           max_pooling1d_1[0][0]            
__________________________________________________________________________________________________
flatten_2 (Flatten)             (None, 32256)        0           max_pooling1d_2[0][0]            
__________________________________________________________________________________________________
flatten_3 (Flatten)             (None, 31744)        0           max_pooling1d_3[0][0]            
__________________________________________________________________________________________________
flatten_4 (Flatten)             (None, 30720)        0           max_pooling1d_4[0][0]            
__________________________________________________________________________________________________
flatten_5 (Flatten)             (None, 28672)        0           max_pooling1d_5[0][0]            
__________________________________________________________________________________________________
flatten_6 (Flatten)             (None, 24576)        0           max_pooling1d_6[0][0]            
__________________________________________________________________________________________________
flatten_7 (Flatten)             (None, 16384)        0           max_pooling1d_7[0][0]            
__________________________________________________________________________________________________
concatenate_1 (Concatenate)     (None, 196864)       0           flatten_1[0][0]                  
                                                                 flatten_2[0][0]                  
                                                                 flatten_3[0][0]                  
                                                                 flatten_4[0][0]                  
                                                                 flatten_5[0][0]                  
                                                                 flatten_6[0][0]                  
                                                                 flatten_7[0][0]                  
__________________________________________________________________________________________________
dense_1 (Dense)                 (None, 16)           3149840     concatenate_1[0][0]              
__________________________________________________________________________________________________
dense_2 (Dense)                 (None, 1)            17          dense_1[0][0]                    
==================================================================================================
Total params: 4,255,601
Trainable params: 4,255,601
Non-trainable params: 0
__________________________________________________________________________________________________


loss:
	last_training: (20, 48.40649958583287)
	min_training: (12, 4.160778196334839)
…
###############################################################################


training:
	time_start: 10.2.2019: 11:16.30
	time_end: 11.2.2019: 13:5.35

loss:
	last_training: (20, 9.415607376098633)
	min_training: (20, 9.415607376098633)
	min_testing: (20, 12.842837084452311)
	last_testing: (20, 12.842837084452311)

network: 
__________________________________________________________________________________________________
Layer (type)                    Output Shape         Param #     Connected to                     
==================================================================================================
inp_1s (InputLayer)             (None, 4096, 2)      0                                            
__________________________________________________________________________________________________
inp_2s (InputLayer)             (None, 4096, 2)      0                                            
__________________________________________________________________________________________________
inp_4s (InputLayer)             (None, 4096, 2)      0                                            
__________________________________________________________________________________________________
inp_8s (InputLayer)             (None, 4096, 2)      0                                            
__________________________________________________________________________________________________
inp_16s (InputLayer)            (None, 4096, 2)      0                                            
__________________________________________________________________________________________________
inp_32s (InputLayer)            (None, 4096, 2)      0                                            
__________________________________________________________________________________________________
inp_64s (InputLayer)            (None, 4096, 2)      0                                            
__________________________________________________________________________________________________
batch_normalization_1 (BatchNor (None, 4096, 2)      8           inp_1s[0][0]                     
__________________________________________________________________________________________________
batch_normalization_2 (BatchNor (None, 4096, 2)      8           inp_2s[0][0]                     
__________________________________________________________________________________________________
batch_normalization_3 (BatchNor (None, 4096, 2)      8           inp_4s[0][0]                     
__________________________________________________________________________________________________
batch_normalization_4 (BatchNor (None, 4096, 2)      8           inp_8s[0][0]                     
__________________________________________________________________________________________________
batch_normalization_5 (BatchNor (None, 4096, 2)      8           inp_16s[0][0]                    
__________________________________________________________________________________________________
batch_normalization_6 (BatchNor (None, 4096, 2)      8           inp_32s[0][0]                    
__________________________________________________________________________________________________
batch_normalization_7 (BatchNor (None, 4096, 2)      8           inp_64s[0][0]                    
__________________________________________________________________________________________________
dropout_1 (Dropout)             (None, 4096, 2)      0           batch_normalization_1[0][0]      
__________________________________________________________________________________________________
dropout_2 (Dropout)             (None, 4096, 2)      0           batch_normalization_2[0][0]      
__________________________________________________________________________________________________
dropout_3 (Dropout)             (None, 4096, 2)      0           batch_normalization_3[0][0]      
__________________________________________________________________________________________________
dropout_4 (Dropout)             (None, 4096, 2)      0           batch_normalization_4[0][0]      
__________________________________________________________________________________________________
dropout_5 (Dropout)             (None, 4096, 2)      0           batch_normalization_5[0][0]      
__________________________________________________________________________________________________
dropout_6 (Dropout)             (None, 4096, 2)      0           batch_normalization_6[0][0]      
__________________________________________________________________________________________________
dropout_7 (Dropout)             (None, 4096, 2)      0           batch_normalization_7[0][0]      
__________________________________________________________________________________________________
conv1d_1 (Conv1D)               (None, 4081, 16)     528         dropout_1[0][0]                  
__________________________________________________________________________________________________
conv1d_2 (Conv1D)               (None, 4065, 16)     1040        dropout_2[0][0]                  
__________________________________________________________________________________________________
conv1d_3 (Conv1D)               (None, 4033, 16)     2064        dropout_3[0][0]                  
__________________________________________________________________________________________________
conv1d_4 (Conv1D)               (None, 3969, 16)     4112        dropout_4[0][0]                  
__________________________________________________________________________________________________
conv1d_5 (Conv1D)               (None, 3841, 16)     8208        dropout_5[0][0]                  
__________________________________________________________________________________________________
conv1d_6 (Conv1D)               (None, 3585, 16)     16400       dropout_6[0][0]                  
__________________________________________________________________________________________________
conv1d_7 (Conv1D)               (None, 3073, 16)     32784       dropout_7[0][0]                  
__________________________________________________________________________________________________
batch_normalization_8 (BatchNor (None, 4081, 16)     64          conv1d_1[0][0]                   
__________________________________________________________________________________________________
batch_normalization_9 (BatchNor (None, 4065, 16)     64          conv1d_2[0][0]                   
__________________________________________________________________________________________________
batch_normalization_10 (BatchNo (None, 4033, 16)     64          conv1d_3[0][0]                   
__________________________________________________________________________________________________
batch_normalization_11 (BatchNo (None, 3969, 16)     64          conv1d_4[0][0]                   
__________________________________________________________________________________________________
batch_normalization_12 (BatchNo (None, 3841, 16)     64          conv1d_5[0][0]                   
__________________________________________________________________________________________________
batch_normalization_13 (BatchNo (None, 3585, 16)     64          conv1d_6[0][0]                   
__________________________________________________________________________________________________
batch_normalization_14 (BatchNo (None, 3073, 16)     64          conv1d_7[0][0]                   
__________________________________________________________________________________________________
conv1d_8 (Conv1D)               (None, 4066, 32)     8224        batch_normalization_8[0][0]      
__________________________________________________________________________________________________
conv1d_9 (Conv1D)               (None, 4034, 32)     16416       batch_normalization_9[0][0]      
__________________________________________________________________________________________________
conv1d_10 (Conv1D)              (None, 3970, 32)     32800       batch_normalization_10[0][0]     
__________________________________________________________________________________________________
conv1d_11 (Conv1D)              (None, 3842, 32)     65568       batch_normalization_11[0][0]     
__________________________________________________________________________________________________
conv1d_12 (Conv1D)              (None, 3586, 32)     131104      batch_normalization_12[0][0]     
__________________________________________________________________________________________________
conv1d_13 (Conv1D)              (None, 3074, 32)     262176      batch_normalization_13[0][0]     
__________________________________________________________________________________________________
conv1d_14 (Conv1D)              (None, 2050, 32)     524320      batch_normalization_14[0][0]     
__________________________________________________________________________________________________
batch_normalization_15 (BatchNo (None, 4066, 32)     128         conv1d_8[0][0]                   
__________________________________________________________________________________________________
batch_normalization_16 (BatchNo (None, 4034, 32)     128         conv1d_9[0][0]                   
__________________________________________________________________________________________________
batch_normalization_17 (BatchNo (None, 3970, 32)     128         conv1d_10[0][0]                  
__________________________________________________________________________________________________
batch_normalization_18 (BatchNo (None, 3842, 32)     128         conv1d_11[0][0]                  
__________________________________________________________________________________________________
batch_normalization_19 (BatchNo (None, 3586, 32)     128         conv1d_12[0][0]                  
__________________________________________________________________________________________________
batch_normalization_20 (BatchNo (None, 3074, 32)     128         conv1d_13[0][0]                  
__________________________________________________________________________________________________
batch_normalization_21 (BatchNo (None, 2050, 32)     128         conv1d_14[0][0]                  
__________________________________________________________________________________________________
max_pooling1d_1 (MaxPooling1D)  (None, 1016, 32)     0           batch_normalization_15[0][0]     
__________________________________________________________________________________________________
max_pooling1d_2 (MaxPooling1D)  (None, 1008, 32)     0           batch_normalization_16[0][0]     
__________________________________________________________________________________________________
max_pooling1d_3 (MaxPooling1D)  (None, 992, 32)      0           batch_normalization_17[0][0]     
__________________________________________________________________________________________________
max_pooling1d_4 (MaxPooling1D)  (None, 960, 32)      0           batch_normalization_18[0][0]     
__________________________________________________________________________________________________
max_pooling1d_5 (MaxPooling1D)  (None, 896, 32)      0           batch_normalization_19[0][0]     
__________________________________________________________________________________________________
max_pooling1d_6 (MaxPooling1D)  (None, 768, 32)      0           batch_normalization_20[0][0]     
__________________________________________________________________________________________________
max_pooling1d_7 (MaxPooling1D)  (None, 512, 32)      0           batch_normalization_21[0][0]     
__________________________________________________________________________________________________
flatten_1 (Flatten)             (None, 32512)        0           max_pooling1d_1[0][0]            
__________________________________________________________________________________________________
flatten_2 (Flatten)             (None, 32256)        0           max_pooling1d_2[0][0]            
__________________________________________________________________________________________________
flatten_3 (Flatten)             (None, 31744)        0           max_pooling1d_3[0][0]            
__________________________________________________________________________________________________
flatten_4 (Flatten)             (None, 30720)        0           max_pooling1d_4[0][0]            
__________________________________________________________________________________________________
flatten_5 (Flatten)             (None, 28672)        0           max_pooling1d_5[0][0]            
__________________________________________________________________________________________________
flatten_6 (Flatten)             (None, 24576)        0           max_pooling1d_6[0][0]            
__________________________________________________________________________________________________
flatten_7 (Flatten)             (None, 16384)        0           max_pooling1d_7[0][0]            
__________________________________________________________________________________________________
concatenate_1 (Concatenate)     (None, 196864)       0           flatten_1[0][0]                  
                                                                 flatten_2[0][0]                  
                                                                 flatten_3[0][0]                  
                                                                 flatten_4[0][0]                  
                                                                 flatten_5[0][0]                  
                                                                 flatten_6[0][0]                  
                                                                 flatten_7[0][0]                  
__________________________________________________________________________________________________
batch_normalization_22 (BatchNo (None, 196864)       787456      concatenate_1[0][0]              
__________________________________________________________________________________________________
dense_1 (Dense)                 (None, 16)           3149840     batch_normalization_22[0][0]     
__________________________________________________________________________________________________
dense_2 (Dense)                 (None, 1)            17          dense_1[0][0]                    
==================================================================================================
Total params: 5,044,457
Trainable params: 4,650,029
Non-trainable params: 394,428
__________________________________________________________________________________________________


loss:
	last_training: (20, 9.415607376098633)
	min_training: (20, 9.415607376098633)
…
loss_plot_name: collect_net_loss_plot_1022019111630.png

SNR_plot_name: collect_net_snr_1022019111630.png

###############################################################################


training:
	time_start: 11.2.2019: 23:6.50
	time_end: 12.2.2019: 1:56.59

loss:
	last_training: (1, 46817516.0)
	min_training: (1, 46817516.0)
	min_testing: (1, 45739792.0)
	last_testing: (1, 45739792.0)

network: 
_________________________________________________________________
Layer (type)                 Output Shape              Param #   
=================================================================
conv1d_1 (Conv1D)            (None, 4081, 32)          7200      
_________________________________________________________________
batch_normalization_1 (Batch (None, 4081, 32)          128       
_________________________________________________________________
activation_1 (Activation)    (None, 4081, 32)          0         
_________________________________________________________________
max_pooling1d_1 (MaxPooling1 (None, 1020, 32)          0         
_________________________________________________________________
conv1d_2 (Conv1D)            (None, 1005, 64)          32832     
_________________________________________________________________
batch_normalization_2 (Batch (None, 1005, 64)          256       
_________________________________________________________________
activation_2 (Activation)    (None, 1005, 64)          0         
_________________________________________________________________
max_pooling1d_2 (MaxPooling1 (None, 251, 64)           0         
_________________________________________________________________
conv1d_3 (Conv1D)            (None, 236, 128)          131200    
_________________________________________________________________
batch_normalization_3 (Batch (None, 236, 128)          512       
_________________________________________________________________
activation_3 (Activation)    (None, 236, 128)          0         
_________________________________________________________________
max_pooling1d_3 (MaxPooling1 (None, 59, 128)           0         
_________________________________________________________________
conv1d_4 (Conv1D)            (None, 44, 256)           524544    
_________________________________________________________________
batch_normalization_4 (Batch (None, 44, 256)           1024      
_________________________________________________________________
activation_4 (Activation)    (None, 44, 256)           0         
_________________________________________________________________
max_pooling1d_4 (MaxPooling1 (None, 11, 256)           0         
_________________________________________________________________
flatten_1 (Flatten)          (None, 2816)              0         
_________________________________________________________________
dropout_1 (Dropout)          (None, 2816)              0         
_________________________________________________________________
dense_1 (Dense)              (None, 64)                180288    
_________________________________________________________________
dropout_2 (Dropout)          (None, 64)                0         
_________________________________________________________________
dense_2 (Dense)              (None, 2)                 130       
=================================================================
Total params: 878,114
Trainable params: 877,154
Non-trainable params: 960
_________________________________________________________________


loss:
	last_training: (1, 46817516.0)
	min_training: (1, 46817516.0)
	min_testing: (1, 45739792.0)
	last_testing: (1, 45739792.0)

template_properties:
	data_shape: [4096   14]
	seed: 12345
…
###############################################################################


training:
	time_start: 15.2.2019: 17:22.13
	time_end: 15.2.2019: 17:28.55

loss:
	last_training: (1, 393.22209870256694)
	min_training: (1, 393.22209870256694)
	min_testing: (1, 403.3022685546875)
	last_testing: (1, 403.3022685546875)

network: 
__________________________________________________________________________________________________
Layer (type)                    Output Shape         Param #     Connected to                     
==================================================================================================
input_1 (InputLayer)            (None, 4096, 14)     0                                            
__________________________________________________________________________________________________
batch_normalization_1 (BatchNor (None, 4096, 14)     56          input_1[0][0]                    
__________________________________________________________________________________________________
conv1d_2 (Conv1D)               (None, 4096, 16)     240         batch_normalization_1[0][0]      
__________________________________________________________________________________________________
conv1d_4 (Conv1D)               (None, 4096, 16)     240         batch_normalization_1[0][0]      
__________________________________________________________________________________________________
max_pooling1d_1 (MaxPooling1D)  (None, 4096, 14)     0           batch_normalization_1[0][0]      
__________________________________________________________________________________________________
conv1d_1 (Conv1D)               (None, 4096, 32)     480         batch_normalization_1[0][0]      
__________________________________________________________________________________________________
conv1d_3 (Conv1D)               (None, 4096, 32)     1568        conv1d_2[0][0]                   
__________________________________________________________________________________________________
conv1d_5 (Conv1D)               (None, 4096, 32)     2592        conv1d_4[0][0]                   
__________________________________________________________________________________________________
conv1d_6 (Conv1D)               (None, 4096, 32)     480         max_pooling1d_1[0][0]            
__________________________________________________________________________________________________
concatenate_1 (Concatenate)     (None, 4096, 128)    0           conv1d_1[0][0]                   
                                                                 conv1d_3[0][0]                   
                                                                 conv1d_5[0][0]                   
                                                                 conv1d_6[0][0]                   
__________________________________________________________________________________________________
max_pooling1d_2 (MaxPooling1D)  (None, 2048, 128)    0           concatenate_1[0][0]              
__________________________________________________________________________________________________
conv1d_8 (Conv1D)               (None, 2048, 16)     2064        max_pooling1d_2[0][0]            
__________________________________________________________________________________________________
conv1d_10 (Conv1D)              (None, 2048, 16)     2064        max_pooling1d_2[0][0]            
__________________________________________________________________________________________________
max_pooling1d_3 (MaxPooling1D)  (None, 2048, 128)    0           max_pooling1d_2[0][0]            
__________________________________________________________________________________________________
conv1d_7 (Conv1D)               (None, 2048, 32)     4128        max_pooling1d_2[0][0]            
__________________________________________________________________________________________________
conv1d_9 (Conv1D)               (None, 2048, 32)     1568        conv1d_8[0][0]                   
__________________________________________________________________________________________________
conv1d_11 (Conv1D)              (None, 2048, 32)     2592        conv1d_10[0][0]                  
__________________________________________________________________________________________________
conv1d_12 (Conv1D)              (None, 2048, 32)     4128        max_pooling1d_3[0][0]            
__________________________________________________________________________________________________
concatenate_2 (Concatenate)     (None, 2048, 128)    0           conv1d_7[0][0]                   
                                                                 conv1d_9[0][0]                   
                                                                 conv1d_11[0][0]                  
                                                                 conv1d_12[0][0]                  
__________________________________________________________________________________________________
max_pooling1d_4 (MaxPooling1D)  (None, 1024, 128)    0           concatenate_2[0][0]              
__________________________________________________________________________________________________
conv1d_14 (Conv1D)              (None, 1024, 16)     2064        max_pooling1d_4[0][0]            
__________________________________________________________________________________________________
conv1d_16 (Conv1D)              (None, 1024, 16)     2064        max_pooling1d_4[0][0]            
__________________________________________________________________________________________________
max_pooling1d_5 (MaxPooling1D)  (None, 1024, 128)    0           max_pooling1d_4[0][0]            
__________________________________________________________________________________________________
conv1d_13 (Conv1D)              (None, 1024, 32)     4128        max_pooling1d_4[0][0]            
__________________________________________________________________________________________________
conv1d_15 (Conv1D)              (None, 1024, 32)     1568        conv1d_14[0][0]                  
__________________________________________________________________________________________________
conv1d_17 (Conv1D)              (None, 1024, 32)     2592        conv1d_16[0][0]                  
__________________________________________________________________________________________________
conv1d_18 (Conv1D)              (None, 1024, 32)     4128        max_pooling1d_5[0][0]            
__________________________________________________________________________________________________
concatenate_3 (Concatenate)     (None, 1024, 128)    0           conv1d_13[0][0]                  
                                                                 conv1d_15[0][0]                  
                                                                 conv1d_17[0][0]                  
                                                                 conv1d_18[0][0]                  
__________________________________________________________________________________________________
max_pooling1d_6 (MaxPooling1D)  (None, 512, 128)     0           concatenate_3[0][0]              
__________________________________________________________________________________________________
conv1d_20 (Conv1D)              (None, 512, 16)      2064        max_pooling1d_6[0][0]            
__________________________________________________________________________________________________
conv1d_22 (Conv1D)              (None, 512, 16)      2064        max_pooling1d_6[0][0]            
__________________________________________________________________________________________________
max_pooling1d_7 (MaxPooling1D)  (None, 512, 128)     0           max_pooling1d_6[0][0]            
__________________________________________________________________________________________________
conv1d_19 (Conv1D)              (None, 512, 32)      4128        max_pooling1d_6[0][0]            
__________________________________________________________________________________________________
conv1d_21 (Conv1D)              (None, 512, 32)      1568        conv1d_20[0][0]                  
__________________________________________________________________________________________________
conv1d_23 (Conv1D)              (None, 512, 32)      2592        conv1d_22[0][0]                  
__________________________________________________________________________________________________
conv1d_24 (Conv1D)              (None, 512, 32)      4128        max_pooling1d_7[0][0]            
__________________________________________________________________________________________________
concatenate_4 (Concatenate)     (None, 512, 128)     0           conv1d_19[0][0]                  
                                                                 conv1d_21[0][0]                  
                                                                 conv1d_23[0][0]                  
                                                                 conv1d_24[0][0]                  
__________________________________________________________________________________________________
batch_normalization_2 (BatchNor (None, 512, 128)     512         concatenate_4[0][0]              
__________________________________________________________________________________________________
max_pooling1d_8 (MaxPooling1D)  (None, 256, 128)     0           batch_normalization_2[0][0]      
__________________________________________________________________________________________________
flatten_1 (Flatten)             (None, 32768)        0           max_pooling1d_8[0][0]            
__________________________________________________________________________________________________
dropout_1 (Dropout)             (None, 32768)        0           flatten_1[0][0]                  
__________________________________________________________________________________________________
dropout_3 (Dropout)             (None, 32768)        0           flatten_1[0][0]                  
__________________________________________________________________________________________________
dense_1 (Dense)                 (None, 16)           524304      dropout_1[0][0]                  
__________________________________________________________________________________________________
dense_2 (Dense)                 (None, 16)           524304      dropout_3[0][0]                  
__________________________________________________________________________________________________
dropout_2 (Dropout)             (None, 16)           0           dense_1[0][0]                    
__________________________________________________________________________________________________
dropout_4 (Dropout)             (None, 16)           0           dense_2[0][0]                    
__________________________________________________________________________________________________
out_snr (Dense)                 (None, 1)            17          dropout_2[0][0]                  
__________________________________________________________________________________________________
out_bool (Dense)                (None, 2)            34          dropout_4[0][0]                  
==================================================================================================
Total params: 1,104,459
Trainable params: 1,104,175
Non-trainable params: 284
__________________________________________________________________________________________________


loss:
	last_training: (1, 393.22209870256694)
	min_training: (1, 393.22209870256694)
…
###############################################################################


training:
	time_start: 15.2.2019: 21:42.17
	time_end: 16.2.2019: 7:0.19

loss:
	last_training: (75, 6.307473430633545)
	min_training: (69, 4.314418848855155)
	min_testing: (69, 7.194975405375163)
	last_testing: (75, 8.497241747538249)

network: 
__________________________________________________________________________________________________
Layer (type)                    Output Shape         Param #     Connected to                     
==================================================================================================
input_1 (InputLayer)            (None, 4096, 14)     0                                            
__________________________________________________________________________________________________
batch_normalization_1 (BatchNor (None, 4096, 14)     56          input_1[0][0]                    
__________________________________________________________________________________________________
dropout_1 (Dropout)             (None, 4096, 14)     0           batch_normalization_1[0][0]      
__________________________________________________________________________________________________
conv1d_1 (Conv1D)               (None, 4065, 64)     28736       dropout_1[0][0]                  
__________________________________________________________________________________________________
batch_normalization_2 (BatchNor (None, 4065, 64)     256         conv1d_1[0][0]                   
__________________________________________________________________________________________________
max_pooling1d_1 (MaxPooling1D)  (None, 1016, 64)     0           batch_normalization_2[0][0]      
__________________________________________________________________________________________________
conv1d_2 (Conv1D)               (None, 1001, 128)    131200      max_pooling1d_1[0][0]            
__________________________________________________________________________________________________
batch_normalization_3 (BatchNor (None, 1001, 128)    512         conv1d_2[0][0]                   
__________________________________________________________________________________________________
conv1d_4 (Conv1D)               (None, 1001, 16)     2064        batch_normalization_3[0][0]      
__________________________________________________________________________________________________
conv1d_6 (Conv1D)               (None, 1001, 16)     2064        batch_normalization_3[0][0]      
__________________________________________________________________________________________________
max_pooling1d_2 (MaxPooling1D)  (None, 1001, 128)    0           batch_normalization_3[0][0]      
__________________________________________________________________________________________________
conv1d_3 (Conv1D)               (None, 1001, 96)     12384       batch_normalization_3[0][0]      
__________________________________________________________________________________________________
conv1d_5 (Conv1D)               (None, 1001, 64)     3136        conv1d_4[0][0]                   
__________________________________________________________________________________________________
conv1d_7 (Conv1D)               (None, 1001, 32)     2592        conv1d_6[0][0]                   
__________________________________________________________________________________________________
conv1d_8 (Conv1D)               (None, 1001, 32)     4128        max_pooling1d_2[0][0]            
__________________________________________________________________________________________________
concatenate_1 (Concatenate)     (None, 1001, 224)    0           conv1d_3[0][0]                   
                                                                 conv1d_5[0][0]                   
                                                                 conv1d_7[0][0]                   
                                                                 conv1d_8[0][0]                   
__________________________________________________________________________________________________
conv1d_10 (Conv1D)              (None, 1001, 16)     3600        concatenate_1[0][0]              
__________________________________________________________________________________________________
conv1d_12 (Conv1D)              (None, 1001, 16)     3600        concatenate_1[0][0]              
__________________________________________________________________________________________________
max_pooling1d_3 (MaxPooling1D)  (None, 1001, 224)    0           concatenate_1[0][0]              
__________________________________________________________________________________________________
conv1d_9 (Conv1D)               (None, 1001, 96)     21600       concatenate_1[0][0]              
__________________________________________________________________________________________________
conv1d_11 (Conv1D)              (None, 1001, 64)     3136        conv1d_10[0][0]                  
__________________________________________________________________________________________________
conv1d_13 (Conv1D)              (None, 1001, 32)     2592        conv1d_12[0][0]                  
__________________________________________________________________________________________________
conv1d_14 (Conv1D)              (None, 1001, 32)     7200        max_pooling1d_3[0][0]            
__________________________________________________________________________________________________
concatenate_2 (Concatenate)     (None, 1001, 224)    0           conv1d_9[0][0]                   
                                                                 conv1d_11[0][0]                  
                                                                 conv1d_13[0][0]                  
                                                                 conv1d_14[0][0]                  
__________________________________________________________________________________________________
max_pooling1d_4 (MaxPooling1D)  (None, 500, 224)     0           concatenate_2[0][0]              
__________________________________________________________________________________________________
conv1d_16 (Conv1D)              (None, 500, 16)      3600        max_pooling1d_4[0][0]            
__________________________________________________________________________________________________
conv1d_18 (Conv1D)              (None, 500, 16)      3600        max_pooling1d_4[0][0]            
__________________________________________________________________________________________________
max_pooling1d_5 (MaxPooling1D)  (None, 500, 224)     0           max_pooling1d_4[0][0]            
__________________________________________________________________________________________________
conv1d_15 (Conv1D)              (None, 500, 96)      21600       max_pooling1d_4[0][0]            
__________________________________________________________________________________________________
conv1d_17 (Conv1D)              (None, 500, 64)      3136        conv1d_16[0][0]                  
__________________________________________________________________________________________________
conv1d_19 (Conv1D)              (None, 500, 32)      2592        conv1d_18[0][0]                  
__________________________________________________________________________________________________
conv1d_20 (Conv1D)              (None, 500, 32)      7200        max_pooling1d_5[0][0]            
__________________________________________________________________________________________________
concatenate_3 (Concatenate)     (None, 500, 224)     0           conv1d_15[0][0]                  
                                                                 conv1d_17[0][0]                  
                                                                 conv1d_19[0][0]                  
                                                                 conv1d_20[0][0]                  
__________________________________________________________________________________________________
conv1d_22 (Conv1D)              (None, 500, 16)      3600        concatenate_3[0][0]              
__________________________________________________________________________________________________
conv1d_24 (Conv1D)              (None, 500, 16)      3600        concatenate_3[0][0]              
__________________________________________________________________________________________________
max_pooling1d_6 (MaxPooling1D)  (None, 500, 224)     0           concatenate_3[0][0]              
__________________________________________________________________________________________________
conv1d_21 (Conv1D)              (None, 500, 96)      21600       concatenate_3[0][0]              
__________________________________________________________________________________________________
conv1d_23 (Conv1D)              (None, 500, 64)      3136        conv1d_22[0][0]                  
__________________________________________________________________________________________________
conv1d_25 (Conv1D)              (None, 500, 32)      2592        conv1d_24[0][0]                  
__________________________________________________________________________________________________
conv1d_26 (Conv1D)              (None, 500, 32)      7200        max_pooling1d_6[0][0]            
__________________________________________________________________________________________________
concatenate_4 (Concatenate)     (None, 500, 224)     0           conv1d_21[0][0]                  
                                                                 conv1d_23[0][0]                  
                                                                 conv1d_25[0][0]                  
                                                                 conv1d_26[0][0]                  
__________________________________________________________________________________________________
batch_normalization_4 (BatchNor (None, 500, 224)     896         concatenate_4[0][0]              
__________________________________________________________________________________________________
max_pooling1d_7 (MaxPooling1D)  (None, 125, 224)     0           batch_normalization_4[0][0]      
__________________________________________________________________________________________________
flatten_1 (Flatten)             (None, 28000)        0           max_pooling1d_7[0][0]            
__________________________________________________________________________________________________
dense_1 (Dense)                 (None, 8)            224008      flatten_1[0][0]                  
__________________________________________________________________________________________________
dense_2 (Dense)                 (None, 8)            224008      flatten_1[0][0]                  
__________________________________________________________________________________________________
out_snr (Dense)                 (None, 1)            9           dense_1[0][0]                    
__________________________________________________________________________________________________
out_bool (Dense)                (None, 2)            18          dense_2[0][0]                    
==================================================================================================
Total params: 761,251
Trainable params: 760,391
Non-trainable params: 860
__________________________________________________________________________________________________


loss:
	last_training: (75, 6.307473430633545)
	min_training: (69, 4.314418848855155)
…
###############################################################################


training:
	time_start: 27.3.2019: 14:48.29
	time_end: 27.3.2019: 15:8.49

loss:
	last_training: (100, 24.64520263671875)
	min_training: (85, 16.49364471435547)
	min_testing: (85, 18.916873931884766)
	last_testing: (100, 26.752965927124023)

network: 
__________________________________________________________________________________________________
Layer (type)                    Output Shape         Param #     Connected to                     
==================================================================================================
input_1 (InputLayer)            (None, 4096, 14)     0                                            
__________________________________________________________________________________________________
batch_normalization_1 (BatchNor (None, 4096, 14)     56          input_1[0][0]                    
__________________________________________________________________________________________________
conv1d_1 (Conv1D)               (None, 4081, 32)     7200        batch_normalization_1[0][0]      
__________________________________________________________________________________________________
batch_normalization_2 (BatchNor (None, 4081, 32)     128         conv1d_1[0][0]                   
__________________________________________________________________________________________________
activation_1 (Activation)       (None, 4081, 32)     0           batch_normalization_2[0][0]      
__________________________________________________________________________________________________
max_pooling1d_1 (MaxPooling1D)  (None, 1020, 32)     0           activation_1[0][0]               
__________________________________________________________________________________________________
conv1d_2 (Conv1D)               (None, 1005, 64)     32832       max_pooling1d_1[0][0]            
__________________________________________________________________________________________________
batch_normalization_3 (BatchNor (None, 1005, 64)     256         conv1d_2[0][0]                   
__________________________________________________________________________________________________
activation_2 (Activation)       (None, 1005, 64)     0           batch_normalization_3[0][0]      
__________________________________________________________________________________________________
max_pooling1d_2 (MaxPooling1D)  (None, 251, 64)      0           activation_2[0][0]               
__________________________________________________________________________________________________
conv1d_3 (Conv1D)               (None, 236, 128)     131200      max_pooling1d_2[0][0]            
__________________________________________________________________________________________________
batch_normalization_4 (BatchNor (None, 236, 128)     512         conv1d_3[0][0]                   
__________________________________________________________________________________________________
activation_3 (Activation)       (None, 236, 128)     0           batch_normalization_4[0][0]      
__________________________________________________________________________________________________
max_pooling1d_4 (MaxPooling1D)  (None, 59, 128)      0           activation_3[0][0]               
__________________________________________________________________________________________________
flatten_1 (Flatten)             (None, 7552)         0           max_pooling1d_4[0][0]            
__________________________________________________________________________________________________
dropout_1 (Dropout)             (None, 7552)         0           flatten_1[0][0]                  
__________________________________________________________________________________________________
dropout_3 (Dropout)             (None, 7552)         0           flatten_1[0][0]                  
__________________________________________________________________________________________________
dense_1 (Dense)                 (None, 64)           483392      dropout_1[0][0]                  
__________________________________________________________________________________________________
dense_2 (Dense)                 (None, 16)           120848      dropout_3[0][0]                  
__________________________________________________________________________________________________
dropout_2 (Dropout)             (None, 64)           0           dense_1[0][0]                    
__________________________________________________________________________________________________
dropout_4 (Dropout)             (None, 16)           0           dense_2[0][0]                    
__________________________________________________________________________________________________
out_snr (Dense)                 (None, 1)            65          dropout_2[0][0]                  
__________________________________________________________________________________________________
out_bool (Dense)                (None, 2)            34          dropout_4[0][0]                  
==================================================================================================
Total params: 776,523
Trainable params: 776,047
Non-trainable params: 476
__________________________________________________________________________________________________


loss:
	last_training: (100, 24.64520263671875)
	min_training: (85, 16.49364471435547)
…
###############################################################################


training:
	time_start: 1.4.2019: 12:42.38
	time_end: 1.4.2019: 14:40.59

loss:
	last_training: (1000, 0.46060260767936706)
	min_training: (960, 0.1677433282852173)
	min_testing: (980, 4.779068607330323)
	last_testing: (1000, 5.439239907400949)

network: 
__________________________________________________________________________________________________
Layer (type)                    Output Shape         Param #     Connected to                     
==================================================================================================
input_1 (InputLayer)            (None, 4096, 14)     0                                            
__________________________________________________________________________________________________
batch_normalization_1 (BatchNor (None, 4096, 14)     56          input_1[0][0]                    
__________________________________________________________________________________________________
conv1d_1 (Conv1D)               (None, 4081, 32)     7200        batch_normalization_1[0][0]      
__________________________________________________________________________________________________
batch_normalization_2 (BatchNor (None, 4081, 32)     128         conv1d_1[0][0]                   
__________________________________________________________________________________________________
activation_1 (Activation)       (None, 4081, 32)     0           batch_normalization_2[0][0]      
__________________________________________________________________________________________________
max_pooling1d_1 (MaxPooling1D)  (None, 1020, 32)     0           activation_1[0][0]               
__________________________________________________________________________________________________
conv1d_2 (Conv1D)               (None, 1005, 64)     32832       max_pooling1d_1[0][0]            
__________________________________________________________________________________________________
batch_normalization_3 (BatchNor (None, 1005, 64)     256         conv1d_2[0][0]                   
__________________________________________________________________________________________________
activation_2 (Activation)       (None, 1005, 64)     0           batch_normalization_3[0][0]      
__________________________________________________________________________________________________
max_pooling1d_2 (MaxPooling1D)  (None, 251, 64)      0           activation_2[0][0]               
__________________________________________________________________________________________________
conv1d_3 (Conv1D)               (None, 236, 128)     131200      max_pooling1d_2[0][0]            
__________________________________________________________________________________________________
batch_normalization_4 (BatchNor (None, 236, 128)     512         conv1d_3[0][0]                   
__________________________________________________________________________________________________
activation_3 (Activation)       (None, 236, 128)     0           batch_normalization_4[0][0]      
__________________________________________________________________________________________________
conv1d_4 (Conv1D)               (None, 221, 256)     524544      activation_3[0][0]               
__________________________________________________________________________________________________
batch_normalization_5 (BatchNor (None, 221, 256)     1024        conv1d_4[0][0]                   
__________________________________________________________________________________________________
activation_4 (Activation)       (None, 221, 256)     0           batch_normalization_5[0][0]      
__________________________________________________________________________________________________
max_pooling1d_4 (MaxPooling1D)  (None, 55, 256)      0           activation_4[0][0]               
__________________________________________________________________________________________________
flatten_1 (Flatten)             (None, 14080)        0           max_pooling1d_4[0][0]            
__________________________________________________________________________________________________
dropout_1 (Dropout)             (None, 14080)        0           flatten_1[0][0]                  
__________________________________________________________________________________________________
dropout_3 (Dropout)             (None, 14080)        0           flatten_1[0][0]                  
__________________________________________________________________________________________________
dense_1 (Dense)                 (None, 64)           901184      dropout_1[0][0]                  
__________________________________________________________________________________________________
dense_2 (Dense)                 (None, 16)           225296      dropout_3[0][0]                  
__________________________________________________________________________________________________
dropout_2 (Dropout)             (None, 64)           0           dense_1[0][0]                    
__________________________________________________________________________________________________
dropout_4 (Dropout)             (None, 16)           0           dense_2[0][0]                    
__________________________________________________________________________________________________
out_snr (Dense)                 (None, 1)            65          dropout_2[0][0]                  
__________________________________________________________________________________________________
out_bool (Dense)                (None, 2)            34          dropout_4[0][0]                  
==================================================================================================
Total params: 1,824,331
Trainable params: 1,823,343
Non-trainable params: 988
__________________________________________________________________________________________________


loss:
	last_training: (1000, 0.46060260767936706)
	min_training: (960, 0.1677433282852173)
…
###############################################################################


training:
	time_start: 3.4.2019: 14:41.2
	time_end: 3.4.2019: 15:36.42

loss:
	last_training: (100, 3.947521751022339)
	min_training: (90, 1.6458485816955566)
	min_testing: (90, 4.653829673880571)
	last_testing: (100, 7.487785012007305)

network: 
__________________________________________________________________________________________________
Layer (type)                    Output Shape         Param #     Connected to                     
==================================================================================================
input_1 (InputLayer)            (None, 4096, 14)     0                                            
__________________________________________________________________________________________________
batch_normalization_1 (BatchNor (None, 4096, 14)     56          input_1[0][0]                    
__________________________________________________________________________________________________
dropout_1 (Dropout)             (None, 4096, 14)     0           batch_normalization_1[0][0]      
__________________________________________________________________________________________________
conv1d_1 (Conv1D)               (None, 4065, 64)     28736       dropout_1[0][0]                  
__________________________________________________________________________________________________
batch_normalization_2 (BatchNor (None, 4065, 64)     256         conv1d_1[0][0]                   
__________________________________________________________________________________________________
max_pooling1d_1 (MaxPooling1D)  (None, 1016, 64)     0           batch_normalization_2[0][0]      
__________________________________________________________________________________________________
conv1d_2 (Conv1D)               (None, 1001, 128)    131200      max_pooling1d_1[0][0]            
__________________________________________________________________________________________________
batch_normalization_3 (BatchNor (None, 1001, 128)    512         conv1d_2[0][0]                   
__________________________________________________________________________________________________
conv1d_4 (Conv1D)               (None, 1001, 16)     2064        batch_normalization_3[0][0]      
__________________________________________________________________________________________________
conv1d_6 (Conv1D)               (None, 1001, 16)     2064        batch_normalization_3[0][0]      
__________________________________________________________________________________________________
max_pooling1d_2 (MaxPooling1D)  (None, 1001, 128)    0           batch_normalization_3[0][0]      
__________________________________________________________________________________________________
conv1d_3 (Conv1D)               (None, 1001, 96)     49248       batch_normalization_3[0][0]      
__________________________________________________________________________________________________
conv1d_5 (Conv1D)               (None, 1001, 64)     8256        conv1d_4[0][0]                   
__________________________________________________________________________________________________
conv1d_7 (Conv1D)               (None, 1001, 32)     8224        conv1d_6[0][0]                   
__________________________________________________________________________________________________
conv1d_8 (Conv1D)               (None, 1001, 32)     4128        max_pooling1d_2[0][0]            
__________________________________________________________________________________________________
concatenate_1 (Concatenate)     (None, 1001, 224)    0           conv1d_3[0][0]                   
                                                                 conv1d_5[0][0]                   
                                                                 conv1d_7[0][0]                   
                                                                 conv1d_8[0][0]                   
__________________________________________________________________________________________________
conv1d_10 (Conv1D)              (None, 1001, 16)     3600        concatenate_1[0][0]              
__________________________________________________________________________________________________
conv1d_12 (Conv1D)              (None, 1001, 16)     3600        concatenate_1[0][0]              
__________________________________________________________________________________________________
max_pooling1d_3 (MaxPooling1D)  (None, 1001, 224)    0           concatenate_1[0][0]              
__________________________________________________________________________________________________
conv1d_9 (Conv1D)               (None, 1001, 96)     86112       concatenate_1[0][0]              
__________________________________________________________________________________________________
conv1d_11 (Conv1D)              (None, 1001, 64)     8256        conv1d_10[0][0]                  
__________________________________________________________________________________________________
conv1d_13 (Conv1D)              (None, 1001, 32)     8224        conv1d_12[0][0]                  
__________________________________________________________________________________________________
conv1d_14 (Conv1D)              (None, 1001, 32)     7200        max_pooling1d_3[0][0]            
__________________________________________________________________________________________________
concatenate_2 (Concatenate)     (None, 1001, 224)    0           conv1d_9[0][0]                   
                                                                 conv1d_11[0][0]                  
                                                                 conv1d_13[0][0]                  
                                                                 conv1d_14[0][0]                  
__________________________________________________________________________________________________
max_pooling1d_4 (MaxPooling1D)  (None, 500, 224)     0           concatenate_2[0][0]              
__________________________________________________________________________________________________
conv1d_16 (Conv1D)              (None, 500, 16)      3600        max_pooling1d_4[0][0]            
__________________________________________________________________________________________________
conv1d_18 (Conv1D)              (None, 500, 16)      3600        max_pooling1d_4[0][0]            
__________________________________________________________________________________________________
max_pooling1d_5 (MaxPooling1D)  (None, 500, 224)     0           max_pooling1d_4[0][0]            
__________________________________________________________________________________________________
conv1d_15 (Conv1D)              (None, 500, 96)      86112       max_pooling1d_4[0][0]            
__________________________________________________________________________________________________
conv1d_17 (Conv1D)              (None, 500, 64)      8256        conv1d_16[0][0]                  
__________________________________________________________________________________________________
conv1d_19 (Conv1D)              (None, 500, 32)      8224        conv1d_18[0][0]                  
__________________________________________________________________________________________________
conv1d_20 (Conv1D)              (None, 500, 32)      7200        max_pooling1d_5[0][0]            
__________________________________________________________________________________________________
concatenate_3 (Concatenate)     (None, 500, 224)     0           conv1d_15[0][0]                  
                                                                 conv1d_17[0][0]                  
                                                                 conv1d_19[0][0]                  
                                                                 conv1d_20[0][0]                  
__________________________________________________________________________________________________
conv1d_22 (Conv1D)              (None, 500, 16)      3600        concatenate_3[0][0]              
__________________________________________________________________________________________________
conv1d_24 (Conv1D)              (None, 500, 16)      3600        concatenate_3[0][0]              
__________________________________________________________________________________________________
max_pooling1d_6 (MaxPooling1D)  (None, 500, 224)     0           concatenate_3[0][0]              
__________________________________________________________________________________________________
conv1d_21 (Conv1D)              (None, 500, 96)      86112       concatenate_3[0][0]              
__________________________________________________________________________________________________
conv1d_23 (Conv1D)              (None, 500, 64)      8256        conv1d_22[0][0]                  
__________________________________________________________________________________________________
conv1d_25 (Conv1D)              (None, 500, 32)      8224        conv1d_24[0][0]                  
__________________________________________________________________________________________________
conv1d_26 (Conv1D)              (None, 500, 32)      7200        max_pooling1d_6[0][0]            
__________________________________________________________________________________________________
concatenate_4 (Concatenate)     (None, 500, 224)     0           conv1d_21[0][0]                  
                                                                 conv1d_23[0][0]                  
                                                                 conv1d_25[0][0]                  
                                                                 conv1d_26[0][0]                  
__________________________________________________________________________________________________
batch_normalization_4 (BatchNor (None, 500, 224)     896         concatenate_4[0][0]              
__________________________________________________________________________________________________
max_pooling1d_7 (MaxPooling1D)  (None, 125, 224)     0           batch_normalization_4[0][0]      
__________________________________________________________________________________________________
flatten_1 (Flatten)             (None, 28000)        0           max_pooling1d_7[0][0]            
__________________________________________________________________________________________________
dense_1 (Dense)                 (None, 8)            224008      flatten_1[0][0]                  
__________________________________________________________________________________________________
dense_2 (Dense)                 (None, 8)            224008      flatten_1[0][0]                  
__________________________________________________________________________________________________
out_snr (Dense)                 (None, 1)            9           dense_1[0][0]                    
__________________________________________________________________________________________________
out_bool (Dense)                (None, 2)            18          dense_2[0][0]                    
==================================================================================================
Total params: 1,034,659
Trainable params: 1,033,799
Non-trainable params: 860
__________________________________________________________________________________________________


loss:
	last_training: (100, 3.947521751022339)
	min_training: (90, 1.6458485816955566)
…
###############################################################################


training:
	time_start: 4.4.2019: 10:24.21
	time_end: 4.4.2019: 12:35.30

loss:
	last_training: (200, 0.42977273676395417)
	min_training: (195, 0.09316960902512074)
	min_testing: (55, 6.639719969620693)
	last_testing: (200, 7.56184478700843)

network: 
__________________________________________________________________________________________________
Layer (type)                    Output Shape         Param #     Connected to                     
==================================================================================================
input_1 (InputLayer)            (None, 4096, 14)     0                                            
__________________________________________________________________________________________________
batch_normalization_1 (BatchNor (None, 4096, 14)     56          input_1[0][0]                    
__________________________________________________________________________________________________
conv1d_1 (Conv1D)               (None, 4065, 64)     28736       batch_normalization_1[0][0]      
__________________________________________________________________________________________________
batch_normalization_2 (BatchNor (None, 4065, 64)     256         conv1d_1[0][0]                   
__________________________________________________________________________________________________
max_pooling1d_1 (MaxPooling1D)  (None, 1016, 64)     0           batch_normalization_2[0][0]      
__________________________________________________________________________________________________
conv1d_2 (Conv1D)               (None, 1001, 128)    131200      max_pooling1d_1[0][0]            
__________________________________________________________________________________________________
batch_normalization_3 (BatchNor (None, 1001, 128)    512         conv1d_2[0][0]                   
__________________________________________________________________________________________________
conv1d_4 (Conv1D)               (None, 1001, 16)     2064        batch_normalization_3[0][0]      
__________________________________________________________________________________________________
conv1d_6 (Conv1D)               (None, 1001, 16)     2064        batch_normalization_3[0][0]      
__________________________________________________________________________________________________
max_pooling1d_2 (MaxPooling1D)  (None, 1001, 128)    0           batch_normalization_3[0][0]      
__________________________________________________________________________________________________
conv1d_3 (Conv1D)               (None, 1001, 96)     49248       batch_normalization_3[0][0]      
__________________________________________________________________________________________________
conv1d_5 (Conv1D)               (None, 1001, 64)     8256        conv1d_4[0][0]                   
__________________________________________________________________________________________________
conv1d_7 (Conv1D)               (None, 1001, 32)     8224        conv1d_6[0][0]                   
__________________________________________________________________________________________________
conv1d_8 (Conv1D)               (None, 1001, 32)     4128        max_pooling1d_2[0][0]            
__________________________________________________________________________________________________
concatenate_1 (Concatenate)     (None, 1001, 224)    0           conv1d_3[0][0]                   
                                                                 conv1d_5[0][0]                   
                                                                 conv1d_7[0][0]                   
                                                                 conv1d_8[0][0]                   
__________________________________________________________________________________________________
conv1d_10 (Conv1D)              (None, 1001, 16)     3600        concatenate_1[0][0]              
__________________________________________________________________________________________________
conv1d_12 (Conv1D)              (None, 1001, 16)     3600        concatenate_1[0][0]              
__________________________________________________________________________________________________
max_pooling1d_3 (MaxPooling1D)  (None, 1001, 224)    0           concatenate_1[0][0]              
__________________________________________________________________________________________________
conv1d_9 (Conv1D)               (None, 1001, 96)     86112       concatenate_1[0][0]              
__________________________________________________________________________________________________
conv1d_11 (Conv1D)              (None, 1001, 64)     8256        conv1d_10[0][0]                  
__________________________________________________________________________________________________
conv1d_13 (Conv1D)              (None, 1001, 32)     8224        conv1d_12[0][0]                  
__________________________________________________________________________________________________
conv1d_14 (Conv1D)              (None, 1001, 32)     7200        max_pooling1d_3[0][0]            
__________________________________________________________________________________________________
concatenate_2 (Concatenate)     (None, 1001, 224)    0           conv1d_9[0][0]                   
                                                                 conv1d_11[0][0]                  
                                                                 conv1d_13[0][0]                  
                                                                 conv1d_14[0][0]                  
__________________________________________________________________________________________________
max_pooling1d_4 (MaxPooling1D)  (None, 500, 224)     0           concatenate_2[0][0]              
__________________________________________________________________________________________________
conv1d_16 (Conv1D)              (None, 500, 16)      3600        max_pooling1d_4[0][0]            
__________________________________________________________________________________________________
conv1d_18 (Conv1D)              (None, 500, 16)      3600        max_pooling1d_4[0][0]            
__________________________________________________________________________________________________
max_pooling1d_5 (MaxPooling1D)  (None, 500, 224)     0           max_pooling1d_4[0][0]            
__________________________________________________________________________________________________
conv1d_15 (Conv1D)              (None, 500, 96)      86112       max_pooling1d_4[0][0]            
__________________________________________________________________________________________________
conv1d_17 (Conv1D)              (None, 500, 64)      8256        conv1d_16[0][0]                  
__________________________________________________________________________________________________
conv1d_19 (Conv1D)              (None, 500, 32)      8224        conv1d_18[0][0]                  
__________________________________________________________________________________________________
conv1d_20 (Conv1D)              (None, 500, 32)      7200        max_pooling1d_5[0][0]            
__________________________________________________________________________________________________
concatenate_3 (Concatenate)     (None, 500, 224)     0           conv1d_15[0][0]                  
                                                                 conv1d_17[0][0]                  
                                                                 conv1d_19[0][0]                  
                                                                 conv1d_20[0][0]                  
__________________________________________________________________________________________________
conv1d_22 (Conv1D)              (None, 500, 16)      3600        concatenate_3[0][0]              
__________________________________________________________________________________________________
conv1d_24 (Conv1D)              (None, 500, 16)      3600        concatenate_3[0][0]              
__________________________________________________________________________________________________
max_pooling1d_6 (MaxPooling1D)  (None, 500, 224)     0           concatenate_3[0][0]              
__________________________________________________________________________________________________
conv1d_21 (Conv1D)              (None, 500, 96)      86112       concatenate_3[0][0]              
__________________________________________________________________________________________________
conv1d_23 (Conv1D)              (None, 500, 64)      8256        conv1d_22[0][0]                  
__________________________________________________________________________________________________
conv1d_25 (Conv1D)              (None, 500, 32)      8224        conv1d_24[0][0]                  
__________________________________________________________________________________________________
conv1d_26 (Conv1D)              (None, 500, 32)      7200        max_pooling1d_6[0][0]            
__________________________________________________________________________________________________
concatenate_4 (Concatenate)     (None, 500, 224)     0           conv1d_21[0][0]                  
                                                                 conv1d_23[0][0]                  
                                                                 conv1d_25[0][0]                  
                                                                 conv1d_26[0][0]                  
__________________________________________________________________________________________________
conv1d_28 (Conv1D)              (None, 500, 16)      3600        concatenate_4[0][0]              
__________________________________________________________________________________________________
conv1d_30 (Conv1D)              (None, 500, 16)      3600        concatenate_4[0][0]              
__________________________________________________________________________________________________
max_pooling1d_7 (MaxPooling1D)  (None, 500, 224)     0           concatenate_4[0][0]              
__________________________________________________________________________________________________
conv1d_27 (Conv1D)              (None, 500, 96)      86112       concatenate_4[0][0]              
__________________________________________________________________________________________________
conv1d_29 (Conv1D)              (None, 500, 64)      8256        conv1d_28[0][0]                  
__________________________________________________________________________________________________
conv1d_31 (Conv1D)              (None, 500, 32)      8224        conv1d_30[0][0]                  
__________________________________________________________________________________________________
conv1d_32 (Conv1D)              (None, 500, 32)      7200        max_pooling1d_7[0][0]            
__________________________________________________________________________________________________
concatenate_5 (Concatenate)     (None, 500, 224)     0           conv1d_27[0][0]                  
                                                                 conv1d_29[0][0]                  
                                                                 conv1d_31[0][0]                  
                                                                 conv1d_32[0][0]                  
__________________________________________________________________________________________________
conv1d_34 (Conv1D)              (None, 500, 16)      3600        concatenate_5[0][0]              
__________________________________________________________________________________________________
conv1d_36 (Conv1D)              (None, 500, 16)      3600        concatenate_5[0][0]              
__________________________________________________________________________________________________
max_pooling1d_8 (MaxPooling1D)  (None, 500, 224)     0           concatenate_5[0][0]              
__________________________________________________________________________________________________
conv1d_33 (Conv1D)              (None, 500, 96)      86112       concatenate_5[0][0]              
__________________________________________________________________________________________________
conv1d_35 (Conv1D)              (None, 500, 64)      8256        conv1d_34[0][0]                  
__________________________________________________________________________________________________
conv1d_37 (Conv1D)              (None, 500, 32)      8224        conv1d_36[0][0]                  
__________________________________________________________________________________________________
conv1d_38 (Conv1D)              (None, 500, 32)      7200        max_pooling1d_8[0][0]            
__________________________________________________________________________________________________
concatenate_6 (Concatenate)     (None, 500, 224)     0           conv1d_33[0][0]                  
                                                                 conv1d_35[0][0]                  
                                                                 conv1d_37[0][0]                  
                                                                 conv1d_38[0][0]                  
__________________________________________________________________________________________________
batch_normalization_4 (BatchNor (None, 500, 224)     896         concatenate_6[0][0]              
__________________________________________________________________________________________________
max_pooling1d_9 (MaxPooling1D)  (None, 125, 224)     0           batch_normalization_4[0][0]      
__________________________________________________________________________________________________
flatten_1 (Flatten)             (None, 28000)        0           max_pooling1d_9[0][0]            
__________________________________________________________________________________________________
dense_1 (Dense)                 (None, 8)            224008      flatten_1[0][0]                  
__________________________________________________________________________________________________
dense_2 (Dense)                 (None, 8)            224008      flatten_1[0][0]                  
__________________________________________________________________________________________________
out_snr (Dense)                 (None, 1)            9           dense_1[0][0]                    
__________________________________________________________________________________________________
out_bool (Dense)                (None, 2)            18          dense_2[0][0]                    
==================================================================================================
Total params: 1,268,643
Trainable params: 1,267,783
Non-trainable params: 860
__________________________________________________________________________________________________


loss:
	last_training: (200, 0.42977273676395417)
	min_training: (195, 0.09316960902512074)
…

###############################################################################


training:
	time_start: 4.4.2019: 15:40.11
	time_end: 4.4.2019: 15:42.34

loss:
	last_training: (1, None)
	min_training: (0, None)
	min_testing: (0, inf)
	last_testing: (0, inf)

network: 
__________________________________________________________________________________________________
Layer (type)                    Output Shape         Param #     Connected to                     
==================================================================================================
input_1 (InputLayer)            (None, 4096, 2)      0                                            
__________________________________________________________________________________________________
batch_normalization_1 (BatchNor (None, 4096, 2)      8           input_1[0][0]                    
__________________________________________________________________________________________________
dropout_1 (Dropout)             (None, 4096, 2)      0           batch_normalization_1[0][0]      
__________________________________________________________________________________________________
conv1d_1 (Conv1D)               (None, 4065, 64)     4160        dropout_1[0][0]                  
__________________________________________________________________________________________________
batch_normalization_2 (BatchNor (None, 4065, 64)     256         conv1d_1[0][0]                   
__________________________________________________________________________________________________
max_pooling1d_1 (MaxPooling1D)  (None, 1016, 64)     0           batch_normalization_2[0][0]      
__________________________________________________________________________________________________
conv1d_2 (Conv1D)               (None, 1001, 128)    131200      max_pooling1d_1[0][0]            
__________________________________________________________________________________________________
batch_normalization_3 (BatchNor (None, 1001, 128)    512         conv1d_2[0][0]                   
__________________________________________________________________________________________________
conv1d_4 (Conv1D)               (None, 1001, 16)     2064        batch_normalization_3[0][0]      
__________________________________________________________________________________________________
conv1d_6 (Conv1D)               (None, 1001, 16)     2064        batch_normalization_3[0][0]      
__________________________________________________________________________________________________
max_pooling1d_2 (MaxPooling1D)  (None, 1001, 128)    0           batch_normalization_3[0][0]      
__________________________________________________________________________________________________
conv1d_3 (Conv1D)               (None, 1001, 96)     49248       batch_normalization_3[0][0]      
__________________________________________________________________________________________________
conv1d_5 (Conv1D)               (None, 1001, 64)     8256        conv1d_4[0][0]                   
__________________________________________________________________________________________________
conv1d_7 (Conv1D)               (None, 1001, 32)     8224        conv1d_6[0][0]                   
__________________________________________________________________________________________________
conv1d_8 (Conv1D)               (None, 1001, 32)     4128        max_pooling1d_2[0][0]            
__________________________________________________________________________________________________
concatenate_1 (Concatenate)     (None, 1001, 224)    0           conv1d_3[0][0]                   
                                                                 conv1d_5[0][0]                   
                                                                 conv1d_7[0][0]                   
                                                                 conv1d_8[0][0]                   
__________________________________________________________________________________________________
conv1d_10 (Conv1D)              (None, 1001, 16)     3600        concatenate_1[0][0]              
__________________________________________________________________________________________________
conv1d_12 (Conv1D)              (None, 1001, 16)     3600        concatenate_1[0][0]              
__________________________________________________________________________________________________
max_pooling1d_3 (MaxPooling1D)  (None, 1001, 224)    0           concatenate_1[0][0]              
__________________________________________________________________________________________________
conv1d_9 (Conv1D)               (None, 1001, 96)     86112       concatenate_1[0][0]              
__________________________________________________________________________________________________
conv1d_11 (Conv1D)              (None, 1001, 64)     8256        conv1d_10[0][0]                  
__________________________________________________________________________________________________
conv1d_13 (Conv1D)              (None, 1001, 32)     8224        conv1d_12[0][0]                  
__________________________________________________________________________________________________
conv1d_14 (Conv1D)              (None, 1001, 32)     7200        max_pooling1d_3[0][0]            
__________________________________________________________________________________________________
concatenate_2 (Concatenate)     (None, 1001, 224)    0           conv1d_9[0][0]                   
                                                                 conv1d_11[0][0]                  
                                                                 conv1d_13[0][0]                  
                                                                 conv1d_14[0][0]                  
__________________________________________________________________________________________________
max_pooling1d_4 (MaxPooling1D)  (None, 500, 224)     0           concatenate_2[0][0]              
__________________________________________________________________________________________________
conv1d_16 (Conv1D)              (None, 500, 16)      3600        max_pooling1d_4[0][0]            
__________________________________________________________________________________________________
conv1d_18 (Conv1D)              (None, 500, 16)      3600        max_pooling1d_4[0][0]            
__________________________________________________________________________________________________
max_pooling1d_5 (MaxPooling1D)  (None, 500, 224)     0           max_pooling1d_4[0][0]            
__________________________________________________________________________________________________
conv1d_15 (Conv1D)              (None, 500, 96)      86112       max_pooling1d_4[0][0]            
__________________________________________________________________________________________________
conv1d_17 (Conv1D)              (None, 500, 64)      8256        conv1d_16[0][0]                  
__________________________________________________________________________________________________
conv1d_19 (Conv1D)              (None, 500, 32)      8224        conv1d_18[0][0]                  
__________________________________________________________________________________________________
conv1d_20 (Conv1D)              (None, 500, 32)      7200        max_pooling1d_5[0][0]            
__________________________________________________________________________________________________
concatenate_3 (Concatenate)     (None, 500, 224)     0           conv1d_15[0][0]                  
                                                                 conv1d_17[0][0]                  
                                                                 conv1d_19[0][0]                  
                                                                 conv1d_20[0][0]                  
__________________________________________________________________________________________________
conv1d_22 (Conv1D)              (None, 500, 16)      3600        concatenate_3[0][0]              
__________________________________________________________________________________________________
conv1d_24 (Conv1D)              (None, 500, 16)      3600        concatenate_3[0][0]              
__________________________________________________________________________________________________
max_pooling1d_6 (MaxPooling1D)  (None, 500, 224)     0           concatenate_3[0][0]              
__________________________________________________________________________________________________
conv1d_21 (Conv1D)              (None, 500, 96)      86112       concatenate_3[0][0]              
__________________________________________________________________________________________________
conv1d_23 (Conv1D)              (None, 500, 64)      8256        conv1d_22[0][0]                  
__________________________________________________________________________________________________
conv1d_25 (Conv1D)              (None, 500, 32)      8224        conv1d_24[0][0]                  
__________________________________________________________________________________________________
conv1d_26 (Conv1D)              (None, 500, 32)      7200        max_pooling1d_6[0][0]            
__________________________________________________________________________________________________
concatenate_4 (Concatenate)     (None, 500, 224)     0           conv1d_21[0][0]                  
                                                                 conv1d_23[0][0]                  
                                                                 conv1d_25[0][0]                  
                                                                 conv1d_26[0][0]                  
__________________________________________________________________________________________________
conv1d_28 (Conv1D)              (None, 500, 16)      3600        concatenate_4[0][0]              
__________________________________________________________________________________________________
conv1d_30 (Conv1D)              (None, 500, 16)      3600        concatenate_4[0][0]              
__________________________________________________________________________________________________
max_pooling1d_7 (MaxPooling1D)  (None, 500, 224)     0           concatenate_4[0][0]              
__________________________________________________________________________________________________
conv1d_27 (Conv1D)              (None, 500, 96)      86112       concatenate_4[0][0]              
__________________________________________________________________________________________________
conv1d_29 (Conv1D)              (None, 500, 64)      8256        conv1d_28[0][0]                  
__________________________________________________________________________________________________
conv1d_31 (Conv1D)              (None, 500, 32)      8224        conv1d_30[0][0]                  
__________________________________________________________________________________________________
conv1d_32 (Conv1D)              (None, 500, 32)      7200        max_pooling1d_7[0][0]            
__________________________________________________________________________________________________
concatenate_5 (Concatenate)     (None, 500, 224)     0           conv1d_27[0][0]                  
                                                                 conv1d_29[0][0]                  
                                                                 conv1d_31[0][0]                  
                                                                 conv1d_32[0][0]                  
__________________________________________________________________________________________________
conv1d_34 (Conv1D)              (None, 500, 16)      3600        concatenate_5[0][0]              
__________________________________________________________________________________________________
conv1d_36 (Conv1D)              (None, 500, 16)      3600        concatenate_5[0][0]              
__________________________________________________________________________________________________
max_pooling1d_8 (MaxPooling1D)  (None, 500, 224)     0           concatenate_5[0][0]              
__________________________________________________________________________________________________
conv1d_33 (Conv1D)              (None, 500, 96)      86112       concatenate_5[0][0]              
__________________________________________________________________________________________________
conv1d_35 (Conv1D)              (None, 500, 64)      8256        conv1d_34[0][0]                  
__________________________________________________________________________________________________
conv1d_37 (Conv1D)              (None, 500, 32)      8224        conv1d_36[0][0]                  
__________________________________________________________________________________________________
conv1d_38 (Conv1D)              (None, 500, 32)      7200        max_pooling1d_8[0][0]            
__________________________________________________________________________________________________
concatenate_6 (Concatenate)     (None, 500, 224)     0           conv1d_33[0][0]                  
                                                                 conv1d_35[0][0]                  
                                                                 conv1d_37[0][0]                  
                                                                 conv1d_38[0][0]                  
__________________________________________________________________________________________________
batch_normalization_4 (BatchNor (None, 500, 224)     896         concatenate_6[0][0]              
__________________________________________________________________________________________________
max_pooling1d_9 (MaxPooling1D)  (None, 125, 224)     0           batch_normalization_4[0][0]      
__________________________________________________________________________________________________
flatten_1 (Flatten)             (None, 28000)        0           max_pooling1d_9[0][0]            
__________________________________________________________________________________________________
dense_1 (Dense)                 (None, 8)            224008      flatten_1[0][0]                  
__________________________________________________________________________________________________
dense_2 (Dense)                 (None, 8)            224008      flatten_1[0][0]                  
__________________________________________________________________________________________________
out_snr (Dense)                 (None, 1)            9           dense_1[0][0]                    
__________________________________________________________________________________________________
out_bool (Dense)                (None, 2)            18          dense_2[0][0]                    
==================================================================================================
Total params: 1,244,019
Trainable params: 1,243,183
Non-trainable params: 836
__________________________________________________________________________________________________


loss:
	last_training: (1, None)
	min_training: (0, None)
	min_testing: (0, inf)
…
###############################################################################


training:
	time_start: 4.4.2019: 16:8.48
	time_end: 4.4.2019: 16:12.56

loss:
	last_training: (2, 206.82675379638673)
	min_training: (2, 206.82675379638673)
	min_testing: (2, 208.9092098908239)
	last_testing: (2, 208.9092098908239)

network: 
__________________________________________________________________________________________________
Layer (type)                    Output Shape         Param #     Connected to                     
==================================================================================================
input_2 (InputLayer)            (None, 4096, 4)      0                                            
__________________________________________________________________________________________________
batch_normalization_5 (BatchNor (None, 4096, 4)      16          input_2[0][0]                    
__________________________________________________________________________________________________
dropout_2 (Dropout)             (None, 4096, 4)      0           batch_normalization_5[0][0]      
__________________________________________________________________________________________________
conv1d_39 (Conv1D)              (None, 4065, 64)     8256        dropout_2[0][0]                  
__________________________________________________________________________________________________
batch_normalization_6 (BatchNor (None, 4065, 64)     256         conv1d_39[0][0]                  
__________________________________________________________________________________________________
max_pooling1d_10 (MaxPooling1D) (None, 1016, 64)     0           batch_normalization_6[0][0]      
__________________________________________________________________________________________________
conv1d_40 (Conv1D)              (None, 1001, 128)    131200      max_pooling1d_10[0][0]           
__________________________________________________________________________________________________
batch_normalization_7 (BatchNor (None, 1001, 128)    512         conv1d_40[0][0]                  
__________________________________________________________________________________________________
conv1d_42 (Conv1D)              (None, 1001, 16)     2064        batch_normalization_7[0][0]      
__________________________________________________________________________________________________
conv1d_44 (Conv1D)              (None, 1001, 16)     2064        batch_normalization_7[0][0]      
__________________________________________________________________________________________________
max_pooling1d_11 (MaxPooling1D) (None, 1001, 128)    0           batch_normalization_7[0][0]      
__________________________________________________________________________________________________
conv1d_41 (Conv1D)              (None, 1001, 96)     49248       batch_normalization_7[0][0]      
__________________________________________________________________________________________________
conv1d_43 (Conv1D)              (None, 1001, 64)     8256        conv1d_42[0][0]                  
__________________________________________________________________________________________________
conv1d_45 (Conv1D)              (None, 1001, 32)     8224        conv1d_44[0][0]                  
__________________________________________________________________________________________________
conv1d_46 (Conv1D)              (None, 1001, 32)     4128        max_pooling1d_11[0][0]           
__________________________________________________________________________________________________
concatenate_7 (Concatenate)     (None, 1001, 224)    0           conv1d_41[0][0]                  
                                                                 conv1d_43[0][0]                  
                                                                 conv1d_45[0][0]                  
                                                                 conv1d_46[0][0]                  
__________________________________________________________________________________________________
conv1d_48 (Conv1D)              (None, 1001, 16)     3600        concatenate_7[0][0]              
__________________________________________________________________________________________________
conv1d_50 (Conv1D)              (None, 1001, 16)     3600        concatenate_7[0][0]              
__________________________________________________________________________________________________
max_pooling1d_12 (MaxPooling1D) (None, 1001, 224)    0           concatenate_7[0][0]              
__________________________________________________________________________________________________
conv1d_47 (Conv1D)              (None, 1001, 96)     86112       concatenate_7[0][0]              
__________________________________________________________________________________________________
conv1d_49 (Conv1D)              (None, 1001, 64)     8256        conv1d_48[0][0]                  
__________________________________________________________________________________________________
conv1d_51 (Conv1D)              (None, 1001, 32)     8224        conv1d_50[0][0]                  
__________________________________________________________________________________________________
conv1d_52 (Conv1D)              (None, 1001, 32)     7200        max_pooling1d_12[0][0]           
__________________________________________________________________________________________________
concatenate_8 (Concatenate)     (None, 1001, 224)    0           conv1d_47[0][0]                  
                                                                 conv1d_49[0][0]                  
                                                                 conv1d_51[0][0]                  
                                                                 conv1d_52[0][0]                  
__________________________________________________________________________________________________
max_pooling1d_13 (MaxPooling1D) (None, 500, 224)     0           concatenate_8[0][0]              
__________________________________________________________________________________________________
conv1d_54 (Conv1D)              (None, 500, 16)      3600        max_pooling1d_13[0][0]           
__________________________________________________________________________________________________
conv1d_56 (Conv1D)              (None, 500, 16)      3600        max_pooling1d_13[0][0]           
__________________________________________________________________________________________________
max_pooling1d_14 (MaxPooling1D) (None, 500, 224)     0           max_pooling1d_13[0][0]           
__________________________________________________________________________________________________
conv1d_53 (Conv1D)              (None, 500, 96)      86112       max_pooling1d_13[0][0]           
__________________________________________________________________________________________________
conv1d_55 (Conv1D)              (None, 500, 64)      8256        conv1d_54[0][0]                  
__________________________________________________________________________________________________
conv1d_57 (Conv1D)              (None, 500, 32)      8224        conv1d_56[0][0]                  
__________________________________________________________________________________________________
conv1d_58 (Conv1D)              (None, 500, 32)      7200        max_pooling1d_14[0][0]           
__________________________________________________________________________________________________
concatenate_9 (Concatenate)     (None, 500, 224)     0           conv1d_53[0][0]                  
                                                                 conv1d_55[0][0]                  
                                                                 conv1d_57[0][0]                  
                                                                 conv1d_58[0][0]                  
__________________________________________________________________________________________________
conv1d_60 (Conv1D)              (None, 500, 16)      3600        concatenate_9[0][0]              
__________________________________________________________________________________________________
conv1d_62 (Conv1D)              (None, 500, 16)      3600        concatenate_9[0][0]              
__________________________________________________________________________________________________
max_pooling1d_15 (MaxPooling1D) (None, 500, 224)     0           concatenate_9[0][0]              
__________________________________________________________________________________________________
conv1d_59 (Conv1D)              (None, 500, 96)      86112       concatenate_9[0][0]              
__________________________________________________________________________________________________
conv1d_61 (Conv1D)              (None, 500, 64)      8256        conv1d_60[0][0]                  
__________________________________________________________________________________________________
conv1d_63 (Conv1D)              (None, 500, 32)      8224        conv1d_62[0][0]                  
__________________________________________________________________________________________________
conv1d_64 (Conv1D)              (None, 500, 32)      7200        max_pooling1d_15[0][0]           
__________________________________________________________________________________________________
concatenate_10 (Concatenate)    (None, 500, 224)     0           conv1d_59[0][0]                  
                                                                 conv1d_61[0][0]                  
                                                                 conv1d_63[0][0]                  
                                                                 conv1d_64[0][0]                  
__________________________________________________________________________________________________
conv1d_66 (Conv1D)              (None, 500, 16)      3600        concatenate_10[0][0]             
__________________________________________________________________________________________________
conv1d_68 (Conv1D)              (None, 500, 16)      3600        concatenate_10[0][0]             
__________________________________________________________________________________________________
max_pooling1d_16 (MaxPooling1D) (None, 500, 224)     0           concatenate_10[0][0]             
__________________________________________________________________________________________________
conv1d_65 (Conv1D)              (None, 500, 96)      86112       concatenate_10[0][0]             
__________________________________________________________________________________________________
conv1d_67 (Conv1D)              (None, 500, 64)      8256        conv1d_66[0][0]                  
__________________________________________________________________________________________________
conv1d_69 (Conv1D)              (None, 500, 32)      8224        conv1d_68[0][0]                  
__________________________________________________________________________________________________
conv1d_70 (Conv1D)              (None, 500, 32)      7200        max_pooling1d_16[0][0]           
__________________________________________________________________________________________________
concatenate_11 (Concatenate)    (None, 500, 224)     0           conv1d_65[0][0]                  
                                                                 conv1d_67[0][0]                  
                                                                 conv1d_69[0][0]                  
                                                                 conv1d_70[0][0]                  
__________________________________________________________________________________________________
conv1d_72 (Conv1D)              (None, 500, 16)      3600        concatenate_11[0][0]             
__________________________________________________________________________________________________
conv1d_74 (Conv1D)              (None, 500, 16)      3600        concatenate_11[0][0]             
__________________________________________________________________________________________________
max_pooling1d_17 (MaxPooling1D) (None, 500, 224)     0           concatenate_11[0][0]             
__________________________________________________________________________________________________
conv1d_71 (Conv1D)              (None, 500, 96)      86112       concatenate_11[0][0]             
__________________________________________________________________________________________________
conv1d_73 (Conv1D)              (None, 500, 64)      8256        conv1d_72[0][0]                  
__________________________________________________________________________________________________
conv1d_75 (Conv1D)              (None, 500, 32)      8224        conv1d_74[0][0]                  
__________________________________________________________________________________________________
conv1d_76 (Conv1D)              (None, 500, 32)      7200        max_pooling1d_17[0][0]           
__________________________________________________________________________________________________
concatenate_12 (Concatenate)    (None, 500, 224)     0           conv1d_71[0][0]                  
                                                                 conv1d_73[0][0]                  
                                                                 conv1d_75[0][0]                  
                                                                 conv1d_76[0][0]                  
__________________________________________________________________________________________________
batch_normalization_8 (BatchNor (None, 500, 224)     896         concatenate_12[0][0]             
__________________________________________________________________________________________________
max_pooling1d_18 (MaxPooling1D) (None, 125, 224)     0           batch_normalization_8[0][0]      
__________________________________________________________________________________________________
flatten_2 (Flatten)             (None, 28000)        0           max_pooling1d_18[0][0]           
__________________________________________________________________________________________________
dense_3 (Dense)                 (None, 8)            224008      flatten_2[0][0]                  
__________________________________________________________________________________________________
dense_4 (Dense)                 (None, 8)            224008      flatten_2[0][0]                  
__________________________________________________________________________________________________
out_snr (Dense)                 (None, 1)            9           dense_3[0][0]                    
__________________________________________________________________________________________________
out_bool (Dense)                (None, 2)            18          dense_4[0][0]                    
==================================================================================================
Total params: 1,248,123
Trainable params: 1,247,283
Non-trainable params: 840
__________________________________________________________________________________________________


loss:
	last_training: (2, 206.82675379638673)
	min_training: (2, 206.82675379638673)
…
###############################################################################


training:
	time_start: 4.4.2019: 16:14.3
	time_end: 4.4.2019: 16:18.37

loss:
	last_training: (2, 297.6839800292969)
	min_training: (2, 297.6839800292969)
	min_testing: (2, 299.7401900127769)
	last_testing: (2, 299.7401900127769)

network: 
__________________________________________________________________________________________________
Layer (type)                    Output Shape         Param #     Connected to                     
==================================================================================================
input_3 (InputLayer)            (None, 4096, 6)      0                                            
__________________________________________________________________________________________________
batch_normalization_9 (BatchNor (None, 4096, 6)      24          input_3[0][0]                    
__________________________________________________________________________________________________
dropout_3 (Dropout)             (None, 4096, 6)      0           batch_normalization_9[0][0]      
__________________________________________________________________________________________________
conv1d_77 (Conv1D)              (None, 4065, 64)     12352       dropout_3[0][0]                  
__________________________________________________________________________________________________
batch_normalization_10 (BatchNo (None, 4065, 64)     256         conv1d_77[0][0]                  
__________________________________________________________________________________________________
max_pooling1d_19 (MaxPooling1D) (None, 1016, 64)     0           batch_normalization_10[0][0]     
__________________________________________________________________________________________________
conv1d_78 (Conv1D)              (None, 1001, 128)    131200      max_pooling1d_19[0][0]           
__________________________________________________________________________________________________
batch_normalization_11 (BatchNo (None, 1001, 128)    512         conv1d_78[0][0]                  
__________________________________________________________________________________________________
conv1d_80 (Conv1D)              (None, 1001, 16)     2064        batch_normalization_11[0][0]     
__________________________________________________________________________________________________
conv1d_82 (Conv1D)              (None, 1001, 16)     2064        batch_normalization_11[0][0]     
__________________________________________________________________________________________________
max_pooling1d_20 (MaxPooling1D) (None, 1001, 128)    0           batch_normalization_11[0][0]     
__________________________________________________________________________________________________
conv1d_79 (Conv1D)              (None, 1001, 96)     49248       batch_normalization_11[0][0]     
__________________________________________________________________________________________________
conv1d_81 (Conv1D)              (None, 1001, 64)     8256        conv1d_80[0][0]                  
__________________________________________________________________________________________________
conv1d_83 (Conv1D)              (None, 1001, 32)     8224        conv1d_82[0][0]                  
__________________________________________________________________________________________________
conv1d_84 (Conv1D)              (None, 1001, 32)     4128        max_pooling1d_20[0][0]           
__________________________________________________________________________________________________
concatenate_13 (Concatenate)    (None, 1001, 224)    0           conv1d_79[0][0]                  
                                                                 conv1d_81[0][0]                  
                                                                 conv1d_83[0][0]                  
                                                                 conv1d_84[0][0]                  
__________________________________________________________________________________________________
conv1d_86 (Conv1D)              (None, 1001, 16)     3600        concatenate_13[0][0]             
__________________________________________________________________________________________________
conv1d_88 (Conv1D)              (None, 1001, 16)     3600        concatenate_13[0][0]             
__________________________________________________________________________________________________
max_pooling1d_21 (MaxPooling1D) (None, 1001, 224)    0           concatenate_13[0][0]             
__________________________________________________________________________________________________
conv1d_85 (Conv1D)              (None, 1001, 96)     86112       concatenate_13[0][0]             
__________________________________________________________________________________________________
conv1d_87 (Conv1D)              (None, 1001, 64)     8256        conv1d_86[0][0]                  
__________________________________________________________________________________________________
conv1d_89 (Conv1D)              (None, 1001, 32)     8224        conv1d_88[0][0]                  
__________________________________________________________________________________________________
conv1d_90 (Conv1D)              (None, 1001, 32)     7200        max_pooling1d_21[0][0]           
__________________________________________________________________________________________________
concatenate_14 (Concatenate)    (None, 1001, 224)    0           conv1d_85[0][0]                  
                                                                 conv1d_87[0][0]                  
                                                                 conv1d_89[0][0]                  
                                                                 conv1d_90[0][0]                  
__________________________________________________________________________________________________
max_pooling1d_22 (MaxPooling1D) (None, 500, 224)     0           concatenate_14[0][0]             
__________________________________________________________________________________________________
conv1d_92 (Conv1D)              (None, 500, 16)      3600        max_pooling1d_22[0][0]           
__________________________________________________________________________________________________
conv1d_94 (Conv1D)              (None, 500, 16)      3600        max_pooling1d_22[0][0]           
__________________________________________________________________________________________________
max_pooling1d_23 (MaxPooling1D) (None, 500, 224)     0           max_pooling1d_22[0][0]           
__________________________________________________________________________________________________
conv1d_91 (Conv1D)              (None, 500, 96)      86112       max_pooling1d_22[0][0]           
__________________________________________________________________________________________________
conv1d_93 (Conv1D)              (None, 500, 64)      8256        conv1d_92[0][0]                  
__________________________________________________________________________________________________
conv1d_95 (Conv1D)              (None, 500, 32)      8224        conv1d_94[0][0]                  
__________________________________________________________________________________________________
conv1d_96 (Conv1D)              (None, 500, 32)      7200        max_pooling1d_23[0][0]           
__________________________________________________________________________________________________
concatenate_15 (Concatenate)    (None, 500, 224)     0           conv1d_91[0][0]                  
                                                                 conv1d_93[0][0]                  
                                                                 conv1d_95[0][0]                  
                                                                 conv1d_96[0][0]                  
__________________________________________________________________________________________________
conv1d_98 (Conv1D)              (None, 500, 16)      3600        concatenate_15[0][0]             
__________________________________________________________________________________________________
conv1d_100 (Conv1D)             (None, 500, 16)      3600        concatenate_15[0][0]             
__________________________________________________________________________________________________
max_pooling1d_24 (MaxPooling1D) (None, 500, 224)     0           concatenate_15[0][0]             
__________________________________________________________________________________________________
conv1d_97 (Conv1D)              (None, 500, 96)      86112       concatenate_15[0][0]             
__________________________________________________________________________________________________
conv1d_99 (Conv1D)              (None, 500, 64)      8256        conv1d_98[0][0]                  
__________________________________________________________________________________________________
conv1d_101 (Conv1D)             (None, 500, 32)      8224        conv1d_100[0][0]                 
__________________________________________________________________________________________________
conv1d_102 (Conv1D)             (None, 500, 32)      7200        max_pooling1d_24[0][0]           
__________________________________________________________________________________________________
concatenate_16 (Concatenate)    (None, 500, 224)     0           conv1d_97[0][0]                  
                                                                 conv1d_99[0][0]                  
                                                                 conv1d_101[0][0]                 
                                                                 conv1d_102[0][0]                 
__________________________________________________________________________________________________
conv1d_104 (Conv1D)             (None, 500, 16)      3600        concatenate_16[0][0]             
__________________________________________________________________________________________________
conv1d_106 (Conv1D)             (None, 500, 16)      3600        concatenate_16[0][0]             
__________________________________________________________________________________________________
max_pooling1d_25 (MaxPooling1D) (None, 500, 224)     0           concatenate_16[0][0]             
__________________________________________________________________________________________________
conv1d_103 (Conv1D)             (None, 500, 96)      86112       concatenate_16[0][0]             
__________________________________________________________________________________________________
conv1d_105 (Conv1D)             (None, 500, 64)      8256        conv1d_104[0][0]                 
__________________________________________________________________________________________________
conv1d_107 (Conv1D)             (None, 500, 32)      8224        conv1d_106[0][0]                 
__________________________________________________________________________________________________
conv1d_108 (Conv1D)             (None, 500, 32)      7200        max_pooling1d_25[0][0]           
__________________________________________________________________________________________________
concatenate_17 (Concatenate)    (None, 500, 224)     0           conv1d_103[0][0]                 
                                                                 conv1d_105[0][0]                 
                                                                 conv1d_107[0][0]                 
                                                                 conv1d_108[0][0]                 
__________________________________________________________________________________________________
conv1d_110 (Conv1D)             (None, 500, 16)      3600        concatenate_17[0][0]             
__________________________________________________________________________________________________
conv1d_112 (Conv1D)             (None, 500, 16)      3600        concatenate_17[0][0]             
__________________________________________________________________________________________________
max_pooling1d_26 (MaxPooling1D) (None, 500, 224)     0           concatenate_17[0][0]             
__________________________________________________________________________________________________
conv1d_109 (Conv1D)             (None, 500, 96)      86112       concatenate_17[0][0]             
__________________________________________________________________________________________________
conv1d_111 (Conv1D)             (None, 500, 64)      8256        conv1d_110[0][0]                 
__________________________________________________________________________________________________
conv1d_113 (Conv1D)             (None, 500, 32)      8224        conv1d_112[0][0]                 
__________________________________________________________________________________________________
conv1d_114 (Conv1D)             (None, 500, 32)      7200        max_pooling1d_26[0][0]           
__________________________________________________________________________________________________
concatenate_18 (Concatenate)    (None, 500, 224)     0           conv1d_109[0][0]                 
                                                                 conv1d_111[0][0]                 
                                                                 conv1d_113[0][0]                 
                                                                 conv1d_114[0][0]                 
__________________________________________________________________________________________________
batch_normalization_12 (BatchNo (None, 500, 224)     896         concatenate_18[0][0]             
__________________________________________________________________________________________________
max_pooling1d_27 (MaxPooling1D) (None, 125, 224)     0           batch_normalization_12[0][0]     
__________________________________________________________________________________________________
flatten_3 (Flatten)             (None, 28000)        0           max_pooling1d_27[0][0]           
__________________________________________________________________________________________________
dense_5 (Dense)                 (None, 8)            224008      flatten_3[0][0]                  
__________________________________________________________________________________________________
dense_6 (Dense)                 (None, 8)            224008      flatten_3[0][0]                  
__________________________________________________________________________________________________
out_snr (Dense)                 (None, 1)            9           dense_5[0][0]                    
__________________________________________________________________________________________________
out_bool (Dense)                (None, 2)            18          dense_6[0][0]                    
==================================================================================================
Total params: 1,252,227
Trainable params: 1,251,383
Non-trainable params: 844
__________________________________________________________________________________________________


loss:
	last_training: (2, 297.6839800292969)
	min_training: (2, 297.6839800292969)
…
###############################################################################


training:
	time_start: 4.4.2019: 19:36.41
	time_end: 4.4.2019: 20:54.41

loss:
	last_training: (100, 2.8833640438079833)
	min_training: (100, 2.8833640438079833)
	min_testing: (90, 6.0208598498076)
	last_testing: (100, 6.432735510767188)

network: 
__________________________________________________________________________________________________
Layer (type)                    Output Shape         Param #     Connected to                     
==================================================================================================
input_4 (InputLayer)            (None, 4096, 8)      0                                            
__________________________________________________________________________________________________
batch_normalization_13 (BatchNo (None, 4096, 8)      32          input_4[0][0]                    
__________________________________________________________________________________________________
dropout_4 (Dropout)             (None, 4096, 8)      0           batch_normalization_13[0][0]     
__________________________________________________________________________________________________
conv1d_115 (Conv1D)             (None, 4065, 64)     16448       dropout_4[0][0]                  
__________________________________________________________________________________________________
batch_normalization_14 (BatchNo (None, 4065, 64)     256         conv1d_115[0][0]                 
__________________________________________________________________________________________________
max_pooling1d_28 (MaxPooling1D) (None, 1016, 64)     0           batch_normalization_14[0][0]     
__________________________________________________________________________________________________
conv1d_116 (Conv1D)             (None, 1001, 128)    131200      max_pooling1d_28[0][0]           
__________________________________________________________________________________________________
batch_normalization_15 (BatchNo (None, 1001, 128)    512         conv1d_116[0][0]                 
__________________________________________________________________________________________________
conv1d_118 (Conv1D)             (None, 1001, 16)     2064        batch_normalization_15[0][0]     
__________________________________________________________________________________________________
conv1d_120 (Conv1D)             (None, 1001, 16)     2064        batch_normalization_15[0][0]     
__________________________________________________________________________________________________
max_pooling1d_29 (MaxPooling1D) (None, 1001, 128)    0           batch_normalization_15[0][0]     
__________________________________________________________________________________________________
conv1d_117 (Conv1D)             (None, 1001, 96)     49248       batch_normalization_15[0][0]     
__________________________________________________________________________________________________
conv1d_119 (Conv1D)             (None, 1001, 64)     8256        conv1d_118[0][0]                 
__________________________________________________________________________________________________
conv1d_121 (Conv1D)             (None, 1001, 32)     8224        conv1d_120[0][0]                 
__________________________________________________________________________________________________
conv1d_122 (Conv1D)             (None, 1001, 32)     4128        max_pooling1d_29[0][0]           
__________________________________________________________________________________________________
concatenate_19 (Concatenate)    (None, 1001, 224)    0           conv1d_117[0][0]                 
                                                                 conv1d_119[0][0]                 
                                                                 conv1d_121[0][0]                 
                                                                 conv1d_122[0][0]                 
__________________________________________________________________________________________________
conv1d_124 (Conv1D)             (None, 1001, 16)     3600        concatenate_19[0][0]             
__________________________________________________________________________________________________
conv1d_126 (Conv1D)             (None, 1001, 16)     3600        concatenate_19[0][0]             
__________________________________________________________________________________________________
max_pooling1d_30 (MaxPooling1D) (None, 1001, 224)    0           concatenate_19[0][0]             
__________________________________________________________________________________________________
conv1d_123 (Conv1D)             (None, 1001, 96)     86112       concatenate_19[0][0]             
__________________________________________________________________________________________________
conv1d_125 (Conv1D)             (None, 1001, 64)     8256        conv1d_124[0][0]                 
__________________________________________________________________________________________________
conv1d_127 (Conv1D)             (None, 1001, 32)     8224        conv1d_126[0][0]                 
__________________________________________________________________________________________________
conv1d_128 (Conv1D)             (None, 1001, 32)     7200        max_pooling1d_30[0][0]           
__________________________________________________________________________________________________
concatenate_20 (Concatenate)    (None, 1001, 224)    0           conv1d_123[0][0]                 
                                                                 conv1d_125[0][0]                 
                                                                 conv1d_127[0][0]                 
                                                                 conv1d_128[0][0]                 
__________________________________________________________________________________________________
max_pooling1d_31 (MaxPooling1D) (None, 500, 224)     0           concatenate_20[0][0]             
__________________________________________________________________________________________________
conv1d_130 (Conv1D)             (None, 500, 16)      3600        max_pooling1d_31[0][0]           
__________________________________________________________________________________________________
conv1d_132 (Conv1D)             (None, 500, 16)      3600        max_pooling1d_31[0][0]           
__________________________________________________________________________________________________
max_pooling1d_32 (MaxPooling1D) (None, 500, 224)     0           max_pooling1d_31[0][0]           
__________________________________________________________________________________________________
conv1d_129 (Conv1D)             (None, 500, 96)      86112       max_pooling1d_31[0][0]           
__________________________________________________________________________________________________
conv1d_131 (Conv1D)             (None, 500, 64)      8256        conv1d_130[0][0]                 
__________________________________________________________________________________________________
conv1d_133 (Conv1D)             (None, 500, 32)      8224        conv1d_132[0][0]                 
__________________________________________________________________________________________________
conv1d_134 (Conv1D)             (None, 500, 32)      7200        max_pooling1d_32[0][0]           
__________________________________________________________________________________________________
concatenate_21 (Concatenate)    (None, 500, 224)     0           conv1d_129[0][0]                 
                                                                 conv1d_131[0][0]                 
                                                                 conv1d_133[0][0]                 
                                                                 conv1d_134[0][0]                 
__________________________________________________________________________________________________
conv1d_136 (Conv1D)             (None, 500, 16)      3600        concatenate_21[0][0]             
__________________________________________________________________________________________________
conv1d_138 (Conv1D)             (None, 500, 16)      3600        concatenate_21[0][0]             
__________________________________________________________________________________________________
max_pooling1d_33 (MaxPooling1D) (None, 500, 224)     0           concatenate_21[0][0]             
__________________________________________________________________________________________________
conv1d_135 (Conv1D)             (None, 500, 96)      86112       concatenate_21[0][0]             
__________________________________________________________________________________________________
conv1d_137 (Conv1D)             (None, 500, 64)      8256        conv1d_136[0][0]                 
__________________________________________________________________________________________________
conv1d_139 (Conv1D)             (None, 500, 32)      8224        conv1d_138[0][0]                 
__________________________________________________________________________________________________
conv1d_140 (Conv1D)             (None, 500, 32)      7200        max_pooling1d_33[0][0]           
__________________________________________________________________________________________________
concatenate_22 (Concatenate)    (None, 500, 224)     0           conv1d_135[0][0]                 
                                                                 conv1d_137[0][0]                 
                                                                 conv1d_139[0][0]                 
                                                                 conv1d_140[0][0]                 
__________________________________________________________________________________________________
conv1d_142 (Conv1D)             (None, 500, 16)      3600        concatenate_22[0][0]             
__________________________________________________________________________________________________
conv1d_144 (Conv1D)             (None, 500, 16)      3600        concatenate_22[0][0]             
__________________________________________________________________________________________________
max_pooling1d_34 (MaxPooling1D) (None, 500, 224)     0           concatenate_22[0][0]             
__________________________________________________________________________________________________
conv1d_141 (Conv1D)             (None, 500, 96)      86112       concatenate_22[0][0]             
__________________________________________________________________________________________________
conv1d_143 (Conv1D)             (None, 500, 64)      8256        conv1d_142[0][0]                 
__________________________________________________________________________________________________
conv1d_145 (Conv1D)             (None, 500, 32)      8224        conv1d_144[0][0]                 
__________________________________________________________________________________________________
conv1d_146 (Conv1D)             (None, 500, 32)      7200        max_pooling1d_34[0][0]           
__________________________________________________________________________________________________
concatenate_23 (Concatenate)    (None, 500, 224)     0           conv1d_141[0][0]                 
                                                                 conv1d_143[0][0]                 
                                                                 conv1d_145[0][0]                 
                                                                 conv1d_146[0][0]                 
__________________________________________________________________________________________________
conv1d_148 (Conv1D)             (None, 500, 16)      3600        concatenate_23[0][0]             
__________________________________________________________________________________________________
conv1d_150 (Conv1D)             (None, 500, 16)      3600        concatenate_23[0][0]             
__________________________________________________________________________________________________
max_pooling1d_35 (MaxPooling1D) (None, 500, 224)     0           concatenate_23[0][0]             
__________________________________________________________________________________________________
conv1d_147 (Conv1D)             (None, 500, 96)      86112       concatenate_23[0][0]             
__________________________________________________________________________________________________
conv1d_149 (Conv1D)             (None, 500, 64)      8256        conv1d_148[0][0]                 
__________________________________________________________________________________________________
conv1d_151 (Conv1D)             (None, 500, 32)      8224        conv1d_150[0][0]                 
__________________________________________________________________________________________________
conv1d_152 (Conv1D)             (None, 500, 32)      7200        max_pooling1d_35[0][0]           
__________________________________________________________________________________________________
concatenate_24 (Concatenate)    (None, 500, 224)     0           conv1d_147[0][0]                 
                                                                 conv1d_149[0][0]                 
                                                                 conv1d_151[0][0]                 
                                                                 conv1d_152[0][0]                 
__________________________________________________________________________________________________
batch_normalization_16 (BatchNo (None, 500, 224)     896         concatenate_24[0][0]             
__________________________________________________________________________________________________
max_pooling1d_36 (MaxPooling1D) (None, 125, 224)     0           batch_normalization_16[0][0]     
__________________________________________________________________________________________________
flatten_4 (Flatten)             (None, 28000)        0           max_pooling1d_36[0][0]           
__________________________________________________________________________________________________
dense_7 (Dense)                 (None, 8)            224008      flatten_4[0][0]                  
__________________________________________________________________________________________________
dense_8 (Dense)                 (None, 8)            224008      flatten_4[0][0]                  
__________________________________________________________________________________________________
out_snr (Dense)                 (None, 1)            9           dense_7[0][0]                    
__________________________________________________________________________________________________
out_bool (Dense)                (None, 2)            18          dense_8[0][0]                    
==================================================================================================
Total params: 1,256,331
Trainable params: 1,255,483
Non-trainable params: 848
__________________________________________________________________________________________________


loss:
	last_training: (100, 2.8833640438079833)
	min_training: (100, 2.8833640438079833)
…
###############################################################################


training:
	time_start: 4.4.2019: 20:55.56
	time_end: 4.4.2019: 22:31.49

loss:
	last_training: (100, 332.27396911363604)
	min_training: (50, 0.8589566256523132)
	min_testing: (50, 3.4029844456460983)
	last_testing: (100, 5.164873241014284)

network: 
__________________________________________________________________________________________________
Layer (type)                    Output Shape         Param #     Connected to                     
==================================================================================================
input_5 (InputLayer)            (None, 4096, 10)     0                                            
__________________________________________________________________________________________________
batch_normalization_17 (BatchNo (None, 4096, 10)     40          input_5[0][0]                    
__________________________________________________________________________________________________
dropout_5 (Dropout)             (None, 4096, 10)     0           batch_normalization_17[0][0]     
__________________________________________________________________________________________________
conv1d_153 (Conv1D)             (None, 4065, 64)     20544       dropout_5[0][0]                  
__________________________________________________________________________________________________
batch_normalization_18 (BatchNo (None, 4065, 64)     256         conv1d_153[0][0]                 
__________________________________________________________________________________________________
max_pooling1d_37 (MaxPooling1D) (None, 1016, 64)     0           batch_normalization_18[0][0]     
__________________________________________________________________________________________________
conv1d_154 (Conv1D)             (None, 1001, 128)    131200      max_pooling1d_37[0][0]           
__________________________________________________________________________________________________
batch_normalization_19 (BatchNo (None, 1001, 128)    512         conv1d_154[0][0]                 
__________________________________________________________________________________________________
conv1d_156 (Conv1D)             (None, 1001, 16)     2064        batch_normalization_19[0][0]     
__________________________________________________________________________________________________
conv1d_158 (Conv1D)             (None, 1001, 16)     2064        batch_normalization_19[0][0]     
__________________________________________________________________________________________________
max_pooling1d_38 (MaxPooling1D) (None, 1001, 128)    0           batch_normalization_19[0][0]     
__________________________________________________________________________________________________
conv1d_155 (Conv1D)             (None, 1001, 96)     49248       batch_normalization_19[0][0]     
__________________________________________________________________________________________________
conv1d_157 (Conv1D)             (None, 1001, 64)     8256        conv1d_156[0][0]                 
__________________________________________________________________________________________________
conv1d_159 (Conv1D)             (None, 1001, 32)     8224        conv1d_158[0][0]                 
__________________________________________________________________________________________________
conv1d_160 (Conv1D)             (None, 1001, 32)     4128        max_pooling1d_38[0][0]           
__________________________________________________________________________________________________
concatenate_25 (Concatenate)    (None, 1001, 224)    0           conv1d_155[0][0]                 
                                                                 conv1d_157[0][0]                 
                                                                 conv1d_159[0][0]                 
                                                                 conv1d_160[0][0]                 
__________________________________________________________________________________________________
conv1d_162 (Conv1D)             (None, 1001, 16)     3600        concatenate_25[0][0]             
__________________________________________________________________________________________________
conv1d_164 (Conv1D)             (None, 1001, 16)     3600        concatenate_25[0][0]             
__________________________________________________________________________________________________
max_pooling1d_39 (MaxPooling1D) (None, 1001, 224)    0           concatenate_25[0][0]             
__________________________________________________________________________________________________
conv1d_161 (Conv1D)             (None, 1001, 96)     86112       concatenate_25[0][0]             
__________________________________________________________________________________________________
conv1d_163 (Conv1D)             (None, 1001, 64)     8256        conv1d_162[0][0]                 
__________________________________________________________________________________________________
conv1d_165 (Conv1D)             (None, 1001, 32)     8224        conv1d_164[0][0]                 
__________________________________________________________________________________________________
conv1d_166 (Conv1D)             (None, 1001, 32)     7200        max_pooling1d_39[0][0]           
__________________________________________________________________________________________________
concatenate_26 (Concatenate)    (None, 1001, 224)    0           conv1d_161[0][0]                 
                                                                 conv1d_163[0][0]                 
                                                                 conv1d_165[0][0]                 
                                                                 conv1d_166[0][0]                 
__________________________________________________________________________________________________
max_pooling1d_40 (MaxPooling1D) (None, 500, 224)     0           concatenate_26[0][0]             
__________________________________________________________________________________________________
conv1d_168 (Conv1D)             (None, 500, 16)      3600        max_pooling1d_40[0][0]           
__________________________________________________________________________________________________
conv1d_170 (Conv1D)             (None, 500, 16)      3600        max_pooling1d_40[0][0]           
__________________________________________________________________________________________________
max_pooling1d_41 (MaxPooling1D) (None, 500, 224)     0           max_pooling1d_40[0][0]           
__________________________________________________________________________________________________
conv1d_167 (Conv1D)             (None, 500, 96)      86112       max_pooling1d_40[0][0]           
__________________________________________________________________________________________________
conv1d_169 (Conv1D)             (None, 500, 64)      8256        conv1d_168[0][0]                 
__________________________________________________________________________________________________
conv1d_171 (Conv1D)             (None, 500, 32)      8224        conv1d_170[0][0]                 
__________________________________________________________________________________________________
conv1d_172 (Conv1D)             (None, 500, 32)      7200        max_pooling1d_41[0][0]           
__________________________________________________________________________________________________
concatenate_27 (Concatenate)    (None, 500, 224)     0           conv1d_167[0][0]                 
                                                                 conv1d_169[0][0]                 
                                                                 conv1d_171[0][0]                 
                                                                 conv1d_172[0][0]                 
__________________________________________________________________________________________________
conv1d_174 (Conv1D)             (None, 500, 16)      3600        concatenate_27[0][0]             
__________________________________________________________________________________________________
conv1d_176 (Conv1D)             (None, 500, 16)      3600        concatenate_27[0][0]             
__________________________________________________________________________________________________
max_pooling1d_42 (MaxPooling1D) (None, 500, 224)     0           concatenate_27[0][0]             
__________________________________________________________________________________________________
conv1d_173 (Conv1D)             (None, 500, 96)      86112       concatenate_27[0][0]             
__________________________________________________________________________________________________
conv1d_175 (Conv1D)             (None, 500, 64)      8256        conv1d_174[0][0]                 
__________________________________________________________________________________________________
conv1d_177 (Conv1D)             (None, 500, 32)      8224        conv1d_176[0][0]                 
__________________________________________________________________________________________________
conv1d_178 (Conv1D)             (None, 500, 32)      7200        max_pooling1d_42[0][0]           
__________________________________________________________________________________________________
concatenate_28 (Concatenate)    (None, 500, 224)     0           conv1d_173[0][0]                 
                                                                 conv1d_175[0][0]                 
                                                                 conv1d_177[0][0]                 
                                                                 conv1d_178[0][0]                 
__________________________________________________________________________________________________
conv1d_180 (Conv1D)             (None, 500, 16)      3600        concatenate_28[0][0]             
__________________________________________________________________________________________________
conv1d_182 (Conv1D)             (None, 500, 16)      3600        concatenate_28[0][0]             
__________________________________________________________________________________________________
max_pooling1d_43 (MaxPooling1D) (None, 500, 224)     0           concatenate_28[0][0]             
__________________________________________________________________________________________________
conv1d_179 (Conv1D)             (None, 500, 96)      86112       concatenate_28[0][0]             
__________________________________________________________________________________________________
conv1d_181 (Conv1D)             (None, 500, 64)      8256        conv1d_180[0][0]                 
__________________________________________________________________________________________________
conv1d_183 (Conv1D)             (None, 500, 32)      8224        conv1d_182[0][0]                 
__________________________________________________________________________________________________
conv1d_184 (Conv1D)             (None, 500, 32)      7200        max_pooling1d_43[0][0]           
__________________________________________________________________________________________________
concatenate_29 (Concatenate)    (None, 500, 224)     0           conv1d_179[0][0]                 
                                                                 conv1d_181[0][0]                 
                                                                 conv1d_183[0][0]                 
                                                                 conv1d_184[0][0]                 
__________________________________________________________________________________________________
conv1d_186 (Conv1D)             (None, 500, 16)      3600        concatenate_29[0][0]             
__________________________________________________________________________________________________
conv1d_188 (Conv1D)             (None, 500, 16)      3600        concatenate_29[0][0]             
__________________________________________________________________________________________________
max_pooling1d_44 (MaxPooling1D) (None, 500, 224)     0           concatenate_29[0][0]             
__________________________________________________________________________________________________
conv1d_185 (Conv1D)             (None, 500, 96)      86112       concatenate_29[0][0]             
__________________________________________________________________________________________________
conv1d_187 (Conv1D)             (None, 500, 64)      8256        conv1d_186[0][0]                 
__________________________________________________________________________________________________
conv1d_189 (Conv1D)             (None, 500, 32)      8224        conv1d_188[0][0]                 
__________________________________________________________________________________________________
conv1d_190 (Conv1D)             (None, 500, 32)      7200        max_pooling1d_44[0][0]           
__________________________________________________________________________________________________
concatenate_30 (Concatenate)    (None, 500, 224)     0           conv1d_185[0][0]                 
                                                                 conv1d_187[0][0]                 
                                                                 conv1d_189[0][0]                 
                                                                 conv1d_190[0][0]                 
__________________________________________________________________________________________________
batch_normalization_20 (BatchNo (None, 500, 224)     896         concatenate_30[0][0]             
__________________________________________________________________________________________________
max_pooling1d_45 (MaxPooling1D) (None, 125, 224)     0           batch_normalization_20[0][0]     
__________________________________________________________________________________________________
flatten_5 (Flatten)             (None, 28000)        0           max_pooling1d_45[0][0]           
__________________________________________________________________________________________________
dense_9 (Dense)                 (None, 8)            224008      flatten_5[0][0]                  
__________________________________________________________________________________________________
dense_10 (Dense)                (None, 8)            224008      flatten_5[0][0]                  
__________________________________________________________________________________________________
out_snr (Dense)                 (None, 1)            9           dense_9[0][0]                    
__________________________________________________________________________________________________
out_bool (Dense)                (None, 2)            18          dense_10[0][0]                   
==================================================================================================
Total params: 1,260,435
Trainable params: 1,259,583
Non-trainable params: 852
__________________________________________________________________________________________________


loss:
	last_training: (100, 332.27396911363604)
	min_training: (50, 0.8589566256523132)
…
###############################################################################


training:
	time_start: 5.4.2019: 10:41.26
	time_end: 5.4.2019: 12:37.19

loss:
	last_training: (100, 4.720368300819397)
	min_training: (70, 3.6147378160476684)
	min_testing: (70, 6.9150583482170545)
	last_testing: (100, 7.517361044065358)

network: 
__________________________________________________________________________________________________
Layer (type)                    Output Shape         Param #     Connected to                     
==================================================================================================
input_1 (InputLayer)            (None, 4096, 12)     0                                            
__________________________________________________________________________________________________
batch_normalization_1 (BatchNor (None, 4096, 12)     48          input_1[0][0]                    
__________________________________________________________________________________________________
dropout_1 (Dropout)             (None, 4096, 12)     0           batch_normalization_1[0][0]      
__________________________________________________________________________________________________
conv1d_1 (Conv1D)               (None, 4065, 64)     24640       dropout_1[0][0]                  
__________________________________________________________________________________________________
batch_normalization_2 (BatchNor (None, 4065, 64)     256         conv1d_1[0][0]                   
__________________________________________________________________________________________________
max_pooling1d_1 (MaxPooling1D)  (None, 1016, 64)     0           batch_normalization_2[0][0]      
__________________________________________________________________________________________________
conv1d_2 (Conv1D)               (None, 1001, 128)    131200      max_pooling1d_1[0][0]            
__________________________________________________________________________________________________
batch_normalization_3 (BatchNor (None, 1001, 128)    512         conv1d_2[0][0]                   
__________________________________________________________________________________________________
conv1d_4 (Conv1D)               (None, 1001, 16)     2064        batch_normalization_3[0][0]      
__________________________________________________________________________________________________
conv1d_6 (Conv1D)               (None, 1001, 16)     2064        batch_normalization_3[0][0]      
__________________________________________________________________________________________________
max_pooling1d_2 (MaxPooling1D)  (None, 1001, 128)    0           batch_normalization_3[0][0]      
__________________________________________________________________________________________________
conv1d_3 (Conv1D)               (None, 1001, 96)     49248       batch_normalization_3[0][0]      
__________________________________________________________________________________________________
conv1d_5 (Conv1D)               (None, 1001, 64)     8256        conv1d_4[0][0]                   
__________________________________________________________________________________________________
conv1d_7 (Conv1D)               (None, 1001, 32)     8224        conv1d_6[0][0]                   
__________________________________________________________________________________________________
conv1d_8 (Conv1D)               (None, 1001, 32)     4128        max_pooling1d_2[0][0]            
__________________________________________________________________________________________________
concatenate_1 (Concatenate)     (None, 1001, 224)    0           conv1d_3[0][0]                   
                                                                 conv1d_5[0][0]                   
                                                                 conv1d_7[0][0]                   
                                                                 conv1d_8[0][0]                   
__________________________________________________________________________________________________
conv1d_10 (Conv1D)              (None, 1001, 16)     3600        concatenate_1[0][0]              
__________________________________________________________________________________________________
conv1d_12 (Conv1D)              (None, 1001, 16)     3600        concatenate_1[0][0]              
__________________________________________________________________________________________________
max_pooling1d_3 (MaxPooling1D)  (None, 1001, 224)    0           concatenate_1[0][0]              
__________________________________________________________________________________________________
conv1d_9 (Conv1D)               (None, 1001, 96)     86112       concatenate_1[0][0]              
__________________________________________________________________________________________________
conv1d_11 (Conv1D)              (None, 1001, 64)     8256        conv1d_10[0][0]                  
__________________________________________________________________________________________________
conv1d_13 (Conv1D)              (None, 1001, 32)     8224        conv1d_12[0][0]                  
__________________________________________________________________________________________________
conv1d_14 (Conv1D)              (None, 1001, 32)     7200        max_pooling1d_3[0][0]            
__________________________________________________________________________________________________
concatenate_2 (Concatenate)     (None, 1001, 224)    0           conv1d_9[0][0]                   
                                                                 conv1d_11[0][0]                  
                                                                 conv1d_13[0][0]                  
                                                                 conv1d_14[0][0]                  
__________________________________________________________________________________________________
max_pooling1d_4 (MaxPooling1D)  (None, 500, 224)     0           concatenate_2[0][0]              
__________________________________________________________________________________________________
conv1d_16 (Conv1D)              (None, 500, 16)      3600        max_pooling1d_4[0][0]            
__________________________________________________________________________________________________
conv1d_18 (Conv1D)              (None, 500, 16)      3600        max_pooling1d_4[0][0]            
__________________________________________________________________________________________________
max_pooling1d_5 (MaxPooling1D)  (None, 500, 224)     0           max_pooling1d_4[0][0]            
__________________________________________________________________________________________________
conv1d_15 (Conv1D)              (None, 500, 96)      86112       max_pooling1d_4[0][0]            
__________________________________________________________________________________________________
conv1d_17 (Conv1D)              (None, 500, 64)      8256        conv1d_16[0][0]                  
__________________________________________________________________________________________________
conv1d_19 (Conv1D)              (None, 500, 32)      8224        conv1d_18[0][0]                  
__________________________________________________________________________________________________
conv1d_20 (Conv1D)              (None, 500, 32)      7200        max_pooling1d_5[0][0]            
__________________________________________________________________________________________________
concatenate_3 (Concatenate)     (None, 500, 224)     0           conv1d_15[0][0]                  
                                                                 conv1d_17[0][0]                  
                                                                 conv1d_19[0][0]                  
                                                                 conv1d_20[0][0]                  
__________________________________________________________________________________________________
conv1d_22 (Conv1D)              (None, 500, 16)      3600        concatenate_3[0][0]              
__________________________________________________________________________________________________
conv1d_24 (Conv1D)              (None, 500, 16)      3600        concatenate_3[0][0]              
__________________________________________________________________________________________________
max_pooling1d_6 (MaxPooling1D)  (None, 500, 224)     0           concatenate_3[0][0]              
__________________________________________________________________________________________________
conv1d_21 (Conv1D)              (None, 500, 96)      86112       concatenate_3[0][0]              
__________________________________________________________________________________________________
conv1d_23 (Conv1D)              (None, 500, 64)      8256        conv1d_22[0][0]                  
__________________________________________________________________________________________________
conv1d_25 (Conv1D)              (None, 500, 32)      8224        conv1d_24[0][0]                  
__________________________________________________________________________________________________
conv1d_26 (Conv1D)              (None, 500, 32)      7200        max_pooling1d_6[0][0]            
__________________________________________________________________________________________________
concatenate_4 (Concatenate)     (None, 500, 224)     0           conv1d_21[0][0]                  
                                                                 conv1d_23[0][0]                  
                                                                 conv1d_25[0][0]                  
                                                                 conv1d_26[0][0]                  
__________________________________________________________________________________________________
conv1d_28 (Conv1D)              (None, 500, 16)      3600        concatenate_4[0][0]              
__________________________________________________________________________________________________
conv1d_30 (Conv1D)              (None, 500, 16)      3600        concatenate_4[0][0]              
__________________________________________________________________________________________________
max_pooling1d_7 (MaxPooling1D)  (None, 500, 224)     0           concatenate_4[0][0]              
__________________________________________________________________________________________________
conv1d_27 (Conv1D)              (None, 500, 96)      86112       concatenate_4[0][0]              
__________________________________________________________________________________________________
conv1d_29 (Conv1D)              (None, 500, 64)      8256        conv1d_28[0][0]                  
__________________________________________________________________________________________________
conv1d_31 (Conv1D)              (None, 500, 32)      8224        conv1d_30[0][0]                  
__________________________________________________________________________________________________
conv1d_32 (Conv1D)              (None, 500, 32)      7200        max_pooling1d_7[0][0]            
__________________________________________________________________________________________________
concatenate_5 (Concatenate)     (None, 500, 224)     0           conv1d_27[0][0]                  
                                                                 conv1d_29[0][0]                  
                                                                 conv1d_31[0][0]                  
                                                                 conv1d_32[0][0]                  
__________________________________________________________________________________________________
conv1d_34 (Conv1D)              (None, 500, 16)      3600        concatenate_5[0][0]              
__________________________________________________________________________________________________
conv1d_36 (Conv1D)              (None, 500, 16)      3600        concatenate_5[0][0]              
__________________________________________________________________________________________________
max_pooling1d_8 (MaxPooling1D)  (None, 500, 224)     0           concatenate_5[0][0]              
__________________________________________________________________________________________________
conv1d_33 (Conv1D)              (None, 500, 96)      86112       concatenate_5[0][0]              
__________________________________________________________________________________________________
conv1d_35 (Conv1D)              (None, 500, 64)      8256        conv1d_34[0][0]                  
__________________________________________________________________________________________________
conv1d_37 (Conv1D)              (None, 500, 32)      8224        conv1d_36[0][0]                  
__________________________________________________________________________________________________
conv1d_38 (Conv1D)              (None, 500, 32)      7200        max_pooling1d_8[0][0]            
__________________________________________________________________________________________________
concatenate_6 (Concatenate)     (None, 500, 224)     0           conv1d_33[0][0]                  
                                                                 conv1d_35[0][0]                  
                                                                 conv1d_37[0][0]                  
                                                                 conv1d_38[0][0]                  
__________________________________________________________________________________________________
batch_normalization_4 (BatchNor (None, 500, 224)     896         concatenate_6[0][0]              
__________________________________________________________________________________________________
max_pooling1d_9 (MaxPooling1D)  (None, 125, 224)     0           batch_normalization_4[0][0]      
__________________________________________________________________________________________________
flatten_1 (Flatten)             (None, 28000)        0           max_pooling1d_9[0][0]            
__________________________________________________________________________________________________
dense_1 (Dense)                 (None, 8)            224008      flatten_1[0][0]                  
__________________________________________________________________________________________________
dense_2 (Dense)                 (None, 8)            224008      flatten_1[0][0]                  
__________________________________________________________________________________________________
out_snr (Dense)                 (None, 1)            9           dense_1[0][0]                    
__________________________________________________________________________________________________
out_bool (Dense)                (None, 2)            18          dense_2[0][0]                    
==================================================================================================
Total params: 1,264,539
Trainable params: 1,263,683
Non-trainable params: 856
__________________________________________________________________________________________________


loss:
	last_training: (100, 4.720368300819397)
	min_training: (70, 3.6147378160476684)
…
###############################################################################


training:
	time_start: 5.4.2019: 12:44.12
	time_end: 5.4.2019: 13:50.50

loss:
	last_training: (100, 404.146917559433)
	min_training: (65, 3.7831032428741453)
	min_testing: (90, 5.086753232528197)
	last_testing: (100, 10.92806178972432)

network: 
__________________________________________________________________________________________________
Layer (type)                    Output Shape         Param #     Connected to                     
==================================================================================================
input_1 (InputLayer)            (None, 4096, 14)     0                                            
__________________________________________________________________________________________________
batch_normalization_1 (BatchNor (None, 4096, 14)     56          input_1[0][0]                    
__________________________________________________________________________________________________
dropout_1 (Dropout)             (None, 4096, 14)     0           batch_normalization_1[0][0]      
__________________________________________________________________________________________________
conv1d_1 (Conv1D)               (None, 4065, 64)     28736       dropout_1[0][0]                  
__________________________________________________________________________________________________
batch_normalization_2 (BatchNor (None, 4065, 64)     256         conv1d_1[0][0]                   
__________________________________________________________________________________________________
max_pooling1d_1 (MaxPooling1D)  (None, 1016, 64)     0           batch_normalization_2[0][0]      
__________________________________________________________________________________________________
conv1d_2 (Conv1D)               (None, 1001, 128)    131200      max_pooling1d_1[0][0]            
__________________________________________________________________________________________________
batch_normalization_3 (BatchNor (None, 1001, 128)    512         conv1d_2[0][0]                   
__________________________________________________________________________________________________
conv1d_4 (Conv1D)               (None, 1001, 16)     2064        batch_normalization_3[0][0]      
__________________________________________________________________________________________________
conv1d_6 (Conv1D)               (None, 1001, 16)     2064        batch_normalization_3[0][0]      
__________________________________________________________________________________________________
max_pooling1d_2 (MaxPooling1D)  (None, 1001, 128)    0           batch_normalization_3[0][0]      
__________________________________________________________________________________________________
conv1d_3 (Conv1D)               (None, 1001, 96)     49248       batch_normalization_3[0][0]      
__________________________________________________________________________________________________
conv1d_5 (Conv1D)               (None, 1001, 64)     8256        conv1d_4[0][0]                   
__________________________________________________________________________________________________
conv1d_7 (Conv1D)               (None, 1001, 32)     8224        conv1d_6[0][0]                   
__________________________________________________________________________________________________
conv1d_8 (Conv1D)               (None, 1001, 32)     4128        max_pooling1d_2[0][0]            
__________________________________________________________________________________________________
concatenate_1 (Concatenate)     (None, 1001, 224)    0           conv1d_3[0][0]                   
                                                                 conv1d_5[0][0]                   
                                                                 conv1d_7[0][0]                   
                                                                 conv1d_8[0][0]                   
__________________________________________________________________________________________________
conv1d_10 (Conv1D)              (None, 1001, 16)     3600        concatenate_1[0][0]              
__________________________________________________________________________________________________
conv1d_12 (Conv1D)              (None, 1001, 16)     3600        concatenate_1[0][0]              
__________________________________________________________________________________________________
max_pooling1d_3 (MaxPooling1D)  (None, 1001, 224)    0           concatenate_1[0][0]              
__________________________________________________________________________________________________
conv1d_9 (Conv1D)               (None, 1001, 96)     86112       concatenate_1[0][0]              
__________________________________________________________________________________________________
conv1d_11 (Conv1D)              (None, 1001, 64)     8256        conv1d_10[0][0]                  
__________________________________________________________________________________________________
conv1d_13 (Conv1D)              (None, 1001, 32)     8224        conv1d_12[0][0]                  
__________________________________________________________________________________________________
conv1d_14 (Conv1D)              (None, 1001, 32)     7200        max_pooling1d_3[0][0]            
__________________________________________________________________________________________________
concatenate_2 (Concatenate)     (None, 1001, 224)    0           conv1d_9[0][0]                   
                                                                 conv1d_11[0][0]                  
                                                                 conv1d_13[0][0]                  
                                                                 conv1d_14[0][0]                  
__________________________________________________________________________________________________
max_pooling1d_4 (MaxPooling1D)  (None, 500, 224)     0           concatenate_2[0][0]              
__________________________________________________________________________________________________
conv1d_16 (Conv1D)              (None, 500, 16)      3600        max_pooling1d_4[0][0]            
__________________________________________________________________________________________________
conv1d_18 (Conv1D)              (None, 500, 16)      3600        max_pooling1d_4[0][0]            
__________________________________________________________________________________________________
max_pooling1d_5 (MaxPooling1D)  (None, 500, 224)     0           max_pooling1d_4[0][0]            
__________________________________________________________________________________________________
conv1d_15 (Conv1D)              (None, 500, 96)      86112       max_pooling1d_4[0][0]            
__________________________________________________________________________________________________
conv1d_17 (Conv1D)              (None, 500, 64)      8256        conv1d_16[0][0]                  
__________________________________________________________________________________________________
conv1d_19 (Conv1D)              (None, 500, 32)      8224        conv1d_18[0][0]                  
__________________________________________________________________________________________________
conv1d_20 (Conv1D)              (None, 500, 32)      7200        max_pooling1d_5[0][0]            
__________________________________________________________________________________________________
concatenate_3 (Concatenate)     (None, 500, 224)     0           conv1d_15[0][0]                  
                                                                 conv1d_17[0][0]                  
                                                                 conv1d_19[0][0]                  
                                                                 conv1d_20[0][0]                  
__________________________________________________________________________________________________
conv1d_22 (Conv1D)              (None, 500, 16)      3600        concatenate_3[0][0]              
__________________________________________________________________________________________________
conv1d_24 (Conv1D)              (None, 500, 16)      3600        concatenate_3[0][0]              
__________________________________________________________________________________________________
max_pooling1d_6 (MaxPooling1D)  (None, 500, 224)     0           concatenate_3[0][0]              
__________________________________________________________________________________________________
conv1d_21 (Conv1D)              (None, 500, 96)      86112       concatenate_3[0][0]              
__________________________________________________________________________________________________
conv1d_23 (Conv1D)              (None, 500, 64)      8256        conv1d_22[0][0]                  
__________________________________________________________________________________________________
conv1d_25 (Conv1D)              (None, 500, 32)      8224        conv1d_24[0][0]                  
__________________________________________________________________________________________________
conv1d_26 (Conv1D)              (None, 500, 32)      7200        max_pooling1d_6[0][0]            
__________________________________________________________________________________________________
concatenate_4 (Concatenate)     (None, 500, 224)     0           conv1d_21[0][0]                  
                                                                 conv1d_23[0][0]                  
                                                                 conv1d_25[0][0]                  
                                                                 conv1d_26[0][0]                  
__________________________________________________________________________________________________
conv1d_28 (Conv1D)              (None, 500, 16)      3600        concatenate_4[0][0]              
__________________________________________________________________________________________________
conv1d_30 (Conv1D)              (None, 500, 16)      3600        concatenate_4[0][0]              
__________________________________________________________________________________________________
max_pooling1d_7 (MaxPooling1D)  (None, 500, 224)     0           concatenate_4[0][0]              
__________________________________________________________________________________________________
conv1d_27 (Conv1D)              (None, 500, 96)      86112       concatenate_4[0][0]              
__________________________________________________________________________________________________
conv1d_29 (Conv1D)              (None, 500, 64)      8256        conv1d_28[0][0]                  
__________________________________________________________________________________________________
conv1d_31 (Conv1D)              (None, 500, 32)      8224        conv1d_30[0][0]                  
__________________________________________________________________________________________________
conv1d_32 (Conv1D)              (None, 500, 32)      7200        max_pooling1d_7[0][0]            
__________________________________________________________________________________________________
concatenate_5 (Concatenate)     (None, 500, 224)     0           conv1d_27[0][0]                  
                                                                 conv1d_29[0][0]                  
                                                                 conv1d_31[0][0]                  
                                                                 conv1d_32[0][0]                  
__________________________________________________________________________________________________
conv1d_34 (Conv1D)              (None, 500, 16)      3600        concatenate_5[0][0]              
__________________________________________________________________________________________________
conv1d_36 (Conv1D)              (None, 500, 16)      3600        concatenate_5[0][0]              
__________________________________________________________________________________________________
max_pooling1d_8 (MaxPooling1D)  (None, 500, 224)     0           concatenate_5[0][0]              
__________________________________________________________________________________________________
conv1d_33 (Conv1D)              (None, 500, 96)      86112       concatenate_5[0][0]              
__________________________________________________________________________________________________
conv1d_35 (Conv1D)              (None, 500, 64)      8256        conv1d_34[0][0]                  
__________________________________________________________________________________________________
conv1d_37 (Conv1D)              (None, 500, 32)      8224        conv1d_36[0][0]                  
__________________________________________________________________________________________________
conv1d_38 (Conv1D)              (None, 500, 32)      7200        max_pooling1d_8[0][0]            
__________________________________________________________________________________________________
concatenate_6 (Concatenate)     (None, 500, 224)     0           conv1d_33[0][0]                  
                                                                 conv1d_35[0][0]                  
                                                                 conv1d_37[0][0]                  
                                                                 conv1d_38[0][0]                  
__________________________________________________________________________________________________
batch_normalization_4 (BatchNor (None, 500, 224)     896         concatenate_6[0][0]              
__________________________________________________________________________________________________
max_pooling1d_9 (MaxPooling1D)  (None, 125, 224)     0           batch_normalization_4[0][0]      
__________________________________________________________________________________________________
flatten_1 (Flatten)             (None, 28000)        0           max_pooling1d_9[0][0]            
__________________________________________________________________________________________________
dense_1 (Dense)                 (None, 8)            224008      flatten_1[0][0]                  
__________________________________________________________________________________________________
dense_2 (Dense)                 (None, 8)            224008      flatten_1[0][0]                  
__________________________________________________________________________________________________
out_snr (Dense)                 (None, 1)            9           dense_1[0][0]                    
__________________________________________________________________________________________________
out_bool (Dense)                (None, 2)            18          dense_2[0][0]                    
==================================================================================================
Total params: 1,268,643
Trainable params: 1,267,783
Non-trainable params: 860
__________________________________________________________________________________________________


loss:
	last_training: (100, 404.146917559433)
	min_training: (65, 3.7831032428741453)
…
