training:
	time_start: 9.2.2019: 14:16.9
	time_end: 10.2.2019: 10:34.56

loss:
	last_training: (20, 48.40649958583287)
	min_training: (12, 4.160778196334839)
	min_testing: (20, 80.86942215983073)
	last_testing: (20, 80.86942215983073)

network: 
__________________________________________________________________________________________________
Layer (type)                    Output Shape         Param #     Connected to                     
==================================================================================================
inp_1s (InputLayer)             (None, 4096, 2)      0                                            
__________________________________________________________________________________________________
inp_2s (InputLayer)             (None, 4096, 2)      0                                            
__________________________________________________________________________________________________
inp_4s (InputLayer)             (None, 4096, 2)      0                                            
__________________________________________________________________________________________________
inp_8s (InputLayer)             (None, 4096, 2)      0                                            
__________________________________________________________________________________________________
inp_16s (InputLayer)            (None, 4096, 2)      0                                            
__________________________________________________________________________________________________
inp_32s (InputLayer)            (None, 4096, 2)      0                                            
__________________________________________________________________________________________________
inp_64s (InputLayer)            (None, 4096, 2)      0                                            
__________________________________________________________________________________________________
conv1d_1 (Conv1D)               (None, 4081, 16)     528         inp_1s[0][0]                     
__________________________________________________________________________________________________
conv1d_2 (Conv1D)               (None, 4065, 16)     1040        inp_2s[0][0]                     
__________________________________________________________________________________________________
conv1d_3 (Conv1D)               (None, 4033, 16)     2064        inp_4s[0][0]                     
__________________________________________________________________________________________________
conv1d_4 (Conv1D)               (None, 3969, 16)     4112        inp_8s[0][0]                     
__________________________________________________________________________________________________
conv1d_5 (Conv1D)               (None, 3841, 16)     8208        inp_16s[0][0]                    
__________________________________________________________________________________________________
conv1d_6 (Conv1D)               (None, 3585, 16)     16400       inp_32s[0][0]                    
__________________________________________________________________________________________________
conv1d_7 (Conv1D)               (None, 3073, 16)     32784       inp_64s[0][0]                    
__________________________________________________________________________________________________
conv1d_8 (Conv1D)               (None, 4066, 32)     8224        conv1d_1[0][0]                   
__________________________________________________________________________________________________
conv1d_9 (Conv1D)               (None, 4034, 32)     16416       conv1d_2[0][0]                   
__________________________________________________________________________________________________
conv1d_10 (Conv1D)              (None, 3970, 32)     32800       conv1d_3[0][0]                   
__________________________________________________________________________________________________
conv1d_11 (Conv1D)              (None, 3842, 32)     65568       conv1d_4[0][0]                   
__________________________________________________________________________________________________
conv1d_12 (Conv1D)              (None, 3586, 32)     131104      conv1d_5[0][0]                   
__________________________________________________________________________________________________
conv1d_13 (Conv1D)              (None, 3074, 32)     262176      conv1d_6[0][0]                   
__________________________________________________________________________________________________
conv1d_14 (Conv1D)              (None, 2050, 32)     524320      conv1d_7[0][0]                   
__________________________________________________________________________________________________
max_pooling1d_1 (MaxPooling1D)  (None, 1016, 32)     0           conv1d_8[0][0]                   
__________________________________________________________________________________________________
max_pooling1d_2 (MaxPooling1D)  (None, 1008, 32)     0           conv1d_9[0][0]                   
__________________________________________________________________________________________________
max_pooling1d_3 (MaxPooling1D)  (None, 992, 32)      0           conv1d_10[0][0]                  
__________________________________________________________________________________________________
max_pooling1d_4 (MaxPooling1D)  (None, 960, 32)      0           conv1d_11[0][0]                  
__________________________________________________________________________________________________
max_pooling1d_5 (MaxPooling1D)  (None, 896, 32)      0           conv1d_12[0][0]                  
__________________________________________________________________________________________________
max_pooling1d_6 (MaxPooling1D)  (None, 768, 32)      0           conv1d_13[0][0]                  
__________________________________________________________________________________________________
max_pooling1d_7 (MaxPooling1D)  (None, 512, 32)      0           conv1d_14[0][0]                  
__________________________________________________________________________________________________
flatten_1 (Flatten)             (None, 32512)        0           max_pooling1d_1[0][0]            
__________________________________________________________________________________________________
flatten_2 (Flatten)             (None, 32256)        0           max_pooling1d_2[0][0]            
__________________________________________________________________________________________________
flatten_3 (Flatten)             (None, 31744)        0           max_pooling1d_3[0][0]            
__________________________________________________________________________________________________
flatten_4 (Flatten)             (None, 30720)        0           max_pooling1d_4[0][0]            
__________________________________________________________________________________________________
flatten_5 (Flatten)             (None, 28672)        0           max_pooling1d_5[0][0]            
__________________________________________________________________________________________________
flatten_6 (Flatten)             (None, 24576)        0           max_pooling1d_6[0][0]            
__________________________________________________________________________________________________
flatten_7 (Flatten)             (None, 16384)        0           max_pooling1d_7[0][0]            
__________________________________________________________________________________________________
concatenate_1 (Concatenate)     (None, 196864)       0           flatten_1[0][0]                  
                                                                 flatten_2[0][0]                  
                                                                 flatten_3[0][0]                  
                                                                 flatten_4[0][0]                  
                                                                 flatten_5[0][0]                  
                                                                 flatten_6[0][0]                  
                                                                 flatten_7[0][0]                  
__________________________________________________________________________________________________
dense_1 (Dense)                 (None, 16)           3149840     concatenate_1[0][0]              
__________________________________________________________________________________________________
dense_2 (Dense)                 (None, 1)            17          dense_1[0][0]                    
==================================================================================================
Total params: 4,255,601
Trainable params: 4,255,601
Non-trainable params: 0
__________________________________________________________________________________________________


loss:
	last_training: (20, 48.40649958583287)
	min_training: (12, 4.160778196334839)
…
###############################################################################


training:
	time_start: 10.2.2019: 11:16.30
	time_end: 11.2.2019: 13:5.35

loss:
	last_training: (20, 9.415607376098633)
	min_training: (20, 9.415607376098633)
	min_testing: (20, 12.842837084452311)
	last_testing: (20, 12.842837084452311)

network: 
__________________________________________________________________________________________________
Layer (type)                    Output Shape         Param #     Connected to                     
==================================================================================================
inp_1s (InputLayer)             (None, 4096, 2)      0                                            
__________________________________________________________________________________________________
inp_2s (InputLayer)             (None, 4096, 2)      0                                            
__________________________________________________________________________________________________
inp_4s (InputLayer)             (None, 4096, 2)      0                                            
__________________________________________________________________________________________________
inp_8s (InputLayer)             (None, 4096, 2)      0                                            
__________________________________________________________________________________________________
inp_16s (InputLayer)            (None, 4096, 2)      0                                            
__________________________________________________________________________________________________
inp_32s (InputLayer)            (None, 4096, 2)      0                                            
__________________________________________________________________________________________________
inp_64s (InputLayer)            (None, 4096, 2)      0                                            
__________________________________________________________________________________________________
batch_normalization_1 (BatchNor (None, 4096, 2)      8           inp_1s[0][0]                     
__________________________________________________________________________________________________
batch_normalization_2 (BatchNor (None, 4096, 2)      8           inp_2s[0][0]                     
__________________________________________________________________________________________________
batch_normalization_3 (BatchNor (None, 4096, 2)      8           inp_4s[0][0]                     
__________________________________________________________________________________________________
batch_normalization_4 (BatchNor (None, 4096, 2)      8           inp_8s[0][0]                     
__________________________________________________________________________________________________
batch_normalization_5 (BatchNor (None, 4096, 2)      8           inp_16s[0][0]                    
__________________________________________________________________________________________________
batch_normalization_6 (BatchNor (None, 4096, 2)      8           inp_32s[0][0]                    
__________________________________________________________________________________________________
batch_normalization_7 (BatchNor (None, 4096, 2)      8           inp_64s[0][0]                    
__________________________________________________________________________________________________
dropout_1 (Dropout)             (None, 4096, 2)      0           batch_normalization_1[0][0]      
__________________________________________________________________________________________________
dropout_2 (Dropout)             (None, 4096, 2)      0           batch_normalization_2[0][0]      
__________________________________________________________________________________________________
dropout_3 (Dropout)             (None, 4096, 2)      0           batch_normalization_3[0][0]      
__________________________________________________________________________________________________
dropout_4 (Dropout)             (None, 4096, 2)      0           batch_normalization_4[0][0]      
__________________________________________________________________________________________________
dropout_5 (Dropout)             (None, 4096, 2)      0           batch_normalization_5[0][0]      
__________________________________________________________________________________________________
dropout_6 (Dropout)             (None, 4096, 2)      0           batch_normalization_6[0][0]      
__________________________________________________________________________________________________
dropout_7 (Dropout)             (None, 4096, 2)      0           batch_normalization_7[0][0]      
__________________________________________________________________________________________________
conv1d_1 (Conv1D)               (None, 4081, 16)     528         dropout_1[0][0]                  
__________________________________________________________________________________________________
conv1d_2 (Conv1D)               (None, 4065, 16)     1040        dropout_2[0][0]                  
__________________________________________________________________________________________________
conv1d_3 (Conv1D)               (None, 4033, 16)     2064        dropout_3[0][0]                  
__________________________________________________________________________________________________
conv1d_4 (Conv1D)               (None, 3969, 16)     4112        dropout_4[0][0]                  
__________________________________________________________________________________________________
conv1d_5 (Conv1D)               (None, 3841, 16)     8208        dropout_5[0][0]                  
__________________________________________________________________________________________________
conv1d_6 (Conv1D)               (None, 3585, 16)     16400       dropout_6[0][0]                  
__________________________________________________________________________________________________
conv1d_7 (Conv1D)               (None, 3073, 16)     32784       dropout_7[0][0]                  
__________________________________________________________________________________________________
batch_normalization_8 (BatchNor (None, 4081, 16)     64          conv1d_1[0][0]                   
__________________________________________________________________________________________________
batch_normalization_9 (BatchNor (None, 4065, 16)     64          conv1d_2[0][0]                   
__________________________________________________________________________________________________
batch_normalization_10 (BatchNo (None, 4033, 16)     64          conv1d_3[0][0]                   
__________________________________________________________________________________________________
batch_normalization_11 (BatchNo (None, 3969, 16)     64          conv1d_4[0][0]                   
__________________________________________________________________________________________________
batch_normalization_12 (BatchNo (None, 3841, 16)     64          conv1d_5[0][0]                   
__________________________________________________________________________________________________
batch_normalization_13 (BatchNo (None, 3585, 16)     64          conv1d_6[0][0]                   
__________________________________________________________________________________________________
batch_normalization_14 (BatchNo (None, 3073, 16)     64          conv1d_7[0][0]                   
__________________________________________________________________________________________________
conv1d_8 (Conv1D)               (None, 4066, 32)     8224        batch_normalization_8[0][0]      
__________________________________________________________________________________________________
conv1d_9 (Conv1D)               (None, 4034, 32)     16416       batch_normalization_9[0][0]      
__________________________________________________________________________________________________
conv1d_10 (Conv1D)              (None, 3970, 32)     32800       batch_normalization_10[0][0]     
__________________________________________________________________________________________________
conv1d_11 (Conv1D)              (None, 3842, 32)     65568       batch_normalization_11[0][0]     
__________________________________________________________________________________________________
conv1d_12 (Conv1D)              (None, 3586, 32)     131104      batch_normalization_12[0][0]     
__________________________________________________________________________________________________
conv1d_13 (Conv1D)              (None, 3074, 32)     262176      batch_normalization_13[0][0]     
__________________________________________________________________________________________________
conv1d_14 (Conv1D)              (None, 2050, 32)     524320      batch_normalization_14[0][0]     
__________________________________________________________________________________________________
batch_normalization_15 (BatchNo (None, 4066, 32)     128         conv1d_8[0][0]                   
__________________________________________________________________________________________________
batch_normalization_16 (BatchNo (None, 4034, 32)     128         conv1d_9[0][0]                   
__________________________________________________________________________________________________
batch_normalization_17 (BatchNo (None, 3970, 32)     128         conv1d_10[0][0]                  
__________________________________________________________________________________________________
batch_normalization_18 (BatchNo (None, 3842, 32)     128         conv1d_11[0][0]                  
__________________________________________________________________________________________________
batch_normalization_19 (BatchNo (None, 3586, 32)     128         conv1d_12[0][0]                  
__________________________________________________________________________________________________
batch_normalization_20 (BatchNo (None, 3074, 32)     128         conv1d_13[0][0]                  
__________________________________________________________________________________________________
batch_normalization_21 (BatchNo (None, 2050, 32)     128         conv1d_14[0][0]                  
__________________________________________________________________________________________________
max_pooling1d_1 (MaxPooling1D)  (None, 1016, 32)     0           batch_normalization_15[0][0]     
__________________________________________________________________________________________________
max_pooling1d_2 (MaxPooling1D)  (None, 1008, 32)     0           batch_normalization_16[0][0]     
__________________________________________________________________________________________________
max_pooling1d_3 (MaxPooling1D)  (None, 992, 32)      0           batch_normalization_17[0][0]     
__________________________________________________________________________________________________
max_pooling1d_4 (MaxPooling1D)  (None, 960, 32)      0           batch_normalization_18[0][0]     
__________________________________________________________________________________________________
max_pooling1d_5 (MaxPooling1D)  (None, 896, 32)      0           batch_normalization_19[0][0]     
__________________________________________________________________________________________________
max_pooling1d_6 (MaxPooling1D)  (None, 768, 32)      0           batch_normalization_20[0][0]     
__________________________________________________________________________________________________
max_pooling1d_7 (MaxPooling1D)  (None, 512, 32)      0           batch_normalization_21[0][0]     
__________________________________________________________________________________________________
flatten_1 (Flatten)             (None, 32512)        0           max_pooling1d_1[0][0]            
__________________________________________________________________________________________________
flatten_2 (Flatten)             (None, 32256)        0           max_pooling1d_2[0][0]            
__________________________________________________________________________________________________
flatten_3 (Flatten)             (None, 31744)        0           max_pooling1d_3[0][0]            
__________________________________________________________________________________________________
flatten_4 (Flatten)             (None, 30720)        0           max_pooling1d_4[0][0]            
__________________________________________________________________________________________________
flatten_5 (Flatten)             (None, 28672)        0           max_pooling1d_5[0][0]            
__________________________________________________________________________________________________
flatten_6 (Flatten)             (None, 24576)        0           max_pooling1d_6[0][0]            
__________________________________________________________________________________________________
flatten_7 (Flatten)             (None, 16384)        0           max_pooling1d_7[0][0]            
__________________________________________________________________________________________________
concatenate_1 (Concatenate)     (None, 196864)       0           flatten_1[0][0]                  
                                                                 flatten_2[0][0]                  
                                                                 flatten_3[0][0]                  
                                                                 flatten_4[0][0]                  
                                                                 flatten_5[0][0]                  
                                                                 flatten_6[0][0]                  
                                                                 flatten_7[0][0]                  
__________________________________________________________________________________________________
batch_normalization_22 (BatchNo (None, 196864)       787456      concatenate_1[0][0]              
__________________________________________________________________________________________________
dense_1 (Dense)                 (None, 16)           3149840     batch_normalization_22[0][0]     
__________________________________________________________________________________________________
dense_2 (Dense)                 (None, 1)            17          dense_1[0][0]                    
==================================================================================================
Total params: 5,044,457
Trainable params: 4,650,029
Non-trainable params: 394,428
__________________________________________________________________________________________________


loss:
	last_training: (20, 9.415607376098633)
	min_training: (20, 9.415607376098633)
…
loss_plot_name: collect_net_loss_plot_1022019111630.png

SNR_plot_name: collect_net_snr_1022019111630.png

###############################################################################


training:
	time_start: 11.2.2019: 23:6.50
	time_end: 12.2.2019: 1:56.59

loss:
	last_training: (1, 46817516.0)
	min_training: (1, 46817516.0)
	min_testing: (1, 45739792.0)
	last_testing: (1, 45739792.0)

network: 
_________________________________________________________________
Layer (type)                 Output Shape              Param #   
=================================================================
conv1d_1 (Conv1D)            (None, 4081, 32)          7200      
_________________________________________________________________
batch_normalization_1 (Batch (None, 4081, 32)          128       
_________________________________________________________________
activation_1 (Activation)    (None, 4081, 32)          0         
_________________________________________________________________
max_pooling1d_1 (MaxPooling1 (None, 1020, 32)          0         
_________________________________________________________________
conv1d_2 (Conv1D)            (None, 1005, 64)          32832     
_________________________________________________________________
batch_normalization_2 (Batch (None, 1005, 64)          256       
_________________________________________________________________
activation_2 (Activation)    (None, 1005, 64)          0         
_________________________________________________________________
max_pooling1d_2 (MaxPooling1 (None, 251, 64)           0         
_________________________________________________________________
conv1d_3 (Conv1D)            (None, 236, 128)          131200    
_________________________________________________________________
batch_normalization_3 (Batch (None, 236, 128)          512       
_________________________________________________________________
activation_3 (Activation)    (None, 236, 128)          0         
_________________________________________________________________
max_pooling1d_3 (MaxPooling1 (None, 59, 128)           0         
_________________________________________________________________
conv1d_4 (Conv1D)            (None, 44, 256)           524544    
_________________________________________________________________
batch_normalization_4 (Batch (None, 44, 256)           1024      
_________________________________________________________________
activation_4 (Activation)    (None, 44, 256)           0         
_________________________________________________________________
max_pooling1d_4 (MaxPooling1 (None, 11, 256)           0         
_________________________________________________________________
flatten_1 (Flatten)          (None, 2816)              0         
_________________________________________________________________
dropout_1 (Dropout)          (None, 2816)              0         
_________________________________________________________________
dense_1 (Dense)              (None, 64)                180288    
_________________________________________________________________
dropout_2 (Dropout)          (None, 64)                0         
_________________________________________________________________
dense_2 (Dense)              (None, 2)                 130       
=================================================================
Total params: 878,114
Trainable params: 877,154
Non-trainable params: 960
_________________________________________________________________


loss:
	last_training: (1, 46817516.0)
	min_training: (1, 46817516.0)
	min_testing: (1, 45739792.0)
	last_testing: (1, 45739792.0)

template_properties:
	data_shape: [4096   14]
	seed: 12345
…
###############################################################################


training:
	time_start: 15.2.2019: 17:22.13
	time_end: 15.2.2019: 17:28.55

loss:
	last_training: (1, 393.22209870256694)
	min_training: (1, 393.22209870256694)
	min_testing: (1, 403.3022685546875)
	last_testing: (1, 403.3022685546875)

network: 
__________________________________________________________________________________________________
Layer (type)                    Output Shape         Param #     Connected to                     
==================================================================================================
input_1 (InputLayer)            (None, 4096, 14)     0                                            
__________________________________________________________________________________________________
batch_normalization_1 (BatchNor (None, 4096, 14)     56          input_1[0][0]                    
__________________________________________________________________________________________________
conv1d_2 (Conv1D)               (None, 4096, 16)     240         batch_normalization_1[0][0]      
__________________________________________________________________________________________________
conv1d_4 (Conv1D)               (None, 4096, 16)     240         batch_normalization_1[0][0]      
__________________________________________________________________________________________________
max_pooling1d_1 (MaxPooling1D)  (None, 4096, 14)     0           batch_normalization_1[0][0]      
__________________________________________________________________________________________________
conv1d_1 (Conv1D)               (None, 4096, 32)     480         batch_normalization_1[0][0]      
__________________________________________________________________________________________________
conv1d_3 (Conv1D)               (None, 4096, 32)     1568        conv1d_2[0][0]                   
__________________________________________________________________________________________________
conv1d_5 (Conv1D)               (None, 4096, 32)     2592        conv1d_4[0][0]                   
__________________________________________________________________________________________________
conv1d_6 (Conv1D)               (None, 4096, 32)     480         max_pooling1d_1[0][0]            
__________________________________________________________________________________________________
concatenate_1 (Concatenate)     (None, 4096, 128)    0           conv1d_1[0][0]                   
                                                                 conv1d_3[0][0]                   
                                                                 conv1d_5[0][0]                   
                                                                 conv1d_6[0][0]                   
__________________________________________________________________________________________________
max_pooling1d_2 (MaxPooling1D)  (None, 2048, 128)    0           concatenate_1[0][0]              
__________________________________________________________________________________________________
conv1d_8 (Conv1D)               (None, 2048, 16)     2064        max_pooling1d_2[0][0]            
__________________________________________________________________________________________________
conv1d_10 (Conv1D)              (None, 2048, 16)     2064        max_pooling1d_2[0][0]            
__________________________________________________________________________________________________
max_pooling1d_3 (MaxPooling1D)  (None, 2048, 128)    0           max_pooling1d_2[0][0]            
__________________________________________________________________________________________________
conv1d_7 (Conv1D)               (None, 2048, 32)     4128        max_pooling1d_2[0][0]            
__________________________________________________________________________________________________
conv1d_9 (Conv1D)               (None, 2048, 32)     1568        conv1d_8[0][0]                   
__________________________________________________________________________________________________
conv1d_11 (Conv1D)              (None, 2048, 32)     2592        conv1d_10[0][0]                  
__________________________________________________________________________________________________
conv1d_12 (Conv1D)              (None, 2048, 32)     4128        max_pooling1d_3[0][0]            
__________________________________________________________________________________________________
concatenate_2 (Concatenate)     (None, 2048, 128)    0           conv1d_7[0][0]                   
                                                                 conv1d_9[0][0]                   
                                                                 conv1d_11[0][0]                  
                                                                 conv1d_12[0][0]                  
__________________________________________________________________________________________________
max_pooling1d_4 (MaxPooling1D)  (None, 1024, 128)    0           concatenate_2[0][0]              
__________________________________________________________________________________________________
conv1d_14 (Conv1D)              (None, 1024, 16)     2064        max_pooling1d_4[0][0]            
__________________________________________________________________________________________________
conv1d_16 (Conv1D)              (None, 1024, 16)     2064        max_pooling1d_4[0][0]            
__________________________________________________________________________________________________
max_pooling1d_5 (MaxPooling1D)  (None, 1024, 128)    0           max_pooling1d_4[0][0]            
__________________________________________________________________________________________________
conv1d_13 (Conv1D)              (None, 1024, 32)     4128        max_pooling1d_4[0][0]            
__________________________________________________________________________________________________
conv1d_15 (Conv1D)              (None, 1024, 32)     1568        conv1d_14[0][0]                  
__________________________________________________________________________________________________
conv1d_17 (Conv1D)              (None, 1024, 32)     2592        conv1d_16[0][0]                  
__________________________________________________________________________________________________
conv1d_18 (Conv1D)              (None, 1024, 32)     4128        max_pooling1d_5[0][0]            
__________________________________________________________________________________________________
concatenate_3 (Concatenate)     (None, 1024, 128)    0           conv1d_13[0][0]                  
                                                                 conv1d_15[0][0]                  
                                                                 conv1d_17[0][0]                  
                                                                 conv1d_18[0][0]                  
__________________________________________________________________________________________________
max_pooling1d_6 (MaxPooling1D)  (None, 512, 128)     0           concatenate_3[0][0]              
__________________________________________________________________________________________________
conv1d_20 (Conv1D)              (None, 512, 16)      2064        max_pooling1d_6[0][0]            
__________________________________________________________________________________________________
conv1d_22 (Conv1D)              (None, 512, 16)      2064        max_pooling1d_6[0][0]            
__________________________________________________________________________________________________
max_pooling1d_7 (MaxPooling1D)  (None, 512, 128)     0           max_pooling1d_6[0][0]            
__________________________________________________________________________________________________
conv1d_19 (Conv1D)              (None, 512, 32)      4128        max_pooling1d_6[0][0]            
__________________________________________________________________________________________________
conv1d_21 (Conv1D)              (None, 512, 32)      1568        conv1d_20[0][0]                  
__________________________________________________________________________________________________
conv1d_23 (Conv1D)              (None, 512, 32)      2592        conv1d_22[0][0]                  
__________________________________________________________________________________________________
conv1d_24 (Conv1D)              (None, 512, 32)      4128        max_pooling1d_7[0][0]            
__________________________________________________________________________________________________
concatenate_4 (Concatenate)     (None, 512, 128)     0           conv1d_19[0][0]                  
                                                                 conv1d_21[0][0]                  
                                                                 conv1d_23[0][0]                  
                                                                 conv1d_24[0][0]                  
__________________________________________________________________________________________________
batch_normalization_2 (BatchNor (None, 512, 128)     512         concatenate_4[0][0]              
__________________________________________________________________________________________________
max_pooling1d_8 (MaxPooling1D)  (None, 256, 128)     0           batch_normalization_2[0][0]      
__________________________________________________________________________________________________
flatten_1 (Flatten)             (None, 32768)        0           max_pooling1d_8[0][0]            
__________________________________________________________________________________________________
dropout_1 (Dropout)             (None, 32768)        0           flatten_1[0][0]                  
__________________________________________________________________________________________________
dropout_3 (Dropout)             (None, 32768)        0           flatten_1[0][0]                  
__________________________________________________________________________________________________
dense_1 (Dense)                 (None, 16)           524304      dropout_1[0][0]                  
__________________________________________________________________________________________________
dense_2 (Dense)                 (None, 16)           524304      dropout_3[0][0]                  
__________________________________________________________________________________________________
dropout_2 (Dropout)             (None, 16)           0           dense_1[0][0]                    
__________________________________________________________________________________________________
dropout_4 (Dropout)             (None, 16)           0           dense_2[0][0]                    
__________________________________________________________________________________________________
out_snr (Dense)                 (None, 1)            17          dropout_2[0][0]                  
__________________________________________________________________________________________________
out_bool (Dense)                (None, 2)            34          dropout_4[0][0]                  
==================================================================================================
Total params: 1,104,459
Trainable params: 1,104,175
Non-trainable params: 284
__________________________________________________________________________________________________


loss:
	last_training: (1, 393.22209870256694)
	min_training: (1, 393.22209870256694)
…
###############################################################################


training:
	time_start: 15.2.2019: 21:42.17
	time_end: 16.2.2019: 7:0.19

loss:
	last_training: (75, 6.307473430633545)
	min_training: (69, 4.314418848855155)
	min_testing: (69, 7.194975405375163)
	last_testing: (75, 8.497241747538249)

network: 
__________________________________________________________________________________________________
Layer (type)                    Output Shape         Param #     Connected to                     
==================================================================================================
input_1 (InputLayer)            (None, 4096, 14)     0                                            
__________________________________________________________________________________________________
batch_normalization_1 (BatchNor (None, 4096, 14)     56          input_1[0][0]                    
__________________________________________________________________________________________________
dropout_1 (Dropout)             (None, 4096, 14)     0           batch_normalization_1[0][0]      
__________________________________________________________________________________________________
conv1d_1 (Conv1D)               (None, 4065, 64)     28736       dropout_1[0][0]                  
__________________________________________________________________________________________________
batch_normalization_2 (BatchNor (None, 4065, 64)     256         conv1d_1[0][0]                   
__________________________________________________________________________________________________
max_pooling1d_1 (MaxPooling1D)  (None, 1016, 64)     0           batch_normalization_2[0][0]      
__________________________________________________________________________________________________
conv1d_2 (Conv1D)               (None, 1001, 128)    131200      max_pooling1d_1[0][0]            
__________________________________________________________________________________________________
batch_normalization_3 (BatchNor (None, 1001, 128)    512         conv1d_2[0][0]                   
__________________________________________________________________________________________________
conv1d_4 (Conv1D)               (None, 1001, 16)     2064        batch_normalization_3[0][0]      
__________________________________________________________________________________________________
conv1d_6 (Conv1D)               (None, 1001, 16)     2064        batch_normalization_3[0][0]      
__________________________________________________________________________________________________
max_pooling1d_2 (MaxPooling1D)  (None, 1001, 128)    0           batch_normalization_3[0][0]      
__________________________________________________________________________________________________
conv1d_3 (Conv1D)               (None, 1001, 96)     12384       batch_normalization_3[0][0]      
__________________________________________________________________________________________________
conv1d_5 (Conv1D)               (None, 1001, 64)     3136        conv1d_4[0][0]                   
__________________________________________________________________________________________________
conv1d_7 (Conv1D)               (None, 1001, 32)     2592        conv1d_6[0][0]                   
__________________________________________________________________________________________________
conv1d_8 (Conv1D)               (None, 1001, 32)     4128        max_pooling1d_2[0][0]            
__________________________________________________________________________________________________
concatenate_1 (Concatenate)     (None, 1001, 224)    0           conv1d_3[0][0]                   
                                                                 conv1d_5[0][0]                   
                                                                 conv1d_7[0][0]                   
                                                                 conv1d_8[0][0]                   
__________________________________________________________________________________________________
conv1d_10 (Conv1D)              (None, 1001, 16)     3600        concatenate_1[0][0]              
__________________________________________________________________________________________________
conv1d_12 (Conv1D)              (None, 1001, 16)     3600        concatenate_1[0][0]              
__________________________________________________________________________________________________
max_pooling1d_3 (MaxPooling1D)  (None, 1001, 224)    0           concatenate_1[0][0]              
__________________________________________________________________________________________________
conv1d_9 (Conv1D)               (None, 1001, 96)     21600       concatenate_1[0][0]              
__________________________________________________________________________________________________
conv1d_11 (Conv1D)              (None, 1001, 64)     3136        conv1d_10[0][0]                  
__________________________________________________________________________________________________
conv1d_13 (Conv1D)              (None, 1001, 32)     2592        conv1d_12[0][0]                  
__________________________________________________________________________________________________
conv1d_14 (Conv1D)              (None, 1001, 32)     7200        max_pooling1d_3[0][0]            
__________________________________________________________________________________________________
concatenate_2 (Concatenate)     (None, 1001, 224)    0           conv1d_9[0][0]                   
                                                                 conv1d_11[0][0]                  
                                                                 conv1d_13[0][0]                  
                                                                 conv1d_14[0][0]                  
__________________________________________________________________________________________________
max_pooling1d_4 (MaxPooling1D)  (None, 500, 224)     0           concatenate_2[0][0]              
__________________________________________________________________________________________________
conv1d_16 (Conv1D)              (None, 500, 16)      3600        max_pooling1d_4[0][0]            
__________________________________________________________________________________________________
conv1d_18 (Conv1D)              (None, 500, 16)      3600        max_pooling1d_4[0][0]            
__________________________________________________________________________________________________
max_pooling1d_5 (MaxPooling1D)  (None, 500, 224)     0           max_pooling1d_4[0][0]            
__________________________________________________________________________________________________
conv1d_15 (Conv1D)              (None, 500, 96)      21600       max_pooling1d_4[0][0]            
__________________________________________________________________________________________________
conv1d_17 (Conv1D)              (None, 500, 64)      3136        conv1d_16[0][0]                  
__________________________________________________________________________________________________
conv1d_19 (Conv1D)              (None, 500, 32)      2592        conv1d_18[0][0]                  
__________________________________________________________________________________________________
conv1d_20 (Conv1D)              (None, 500, 32)      7200        max_pooling1d_5[0][0]            
__________________________________________________________________________________________________
concatenate_3 (Concatenate)     (None, 500, 224)     0           conv1d_15[0][0]                  
                                                                 conv1d_17[0][0]                  
                                                                 conv1d_19[0][0]                  
                                                                 conv1d_20[0][0]                  
__________________________________________________________________________________________________
conv1d_22 (Conv1D)              (None, 500, 16)      3600        concatenate_3[0][0]              
__________________________________________________________________________________________________
conv1d_24 (Conv1D)              (None, 500, 16)      3600        concatenate_3[0][0]              
__________________________________________________________________________________________________
max_pooling1d_6 (MaxPooling1D)  (None, 500, 224)     0           concatenate_3[0][0]              
__________________________________________________________________________________________________
conv1d_21 (Conv1D)              (None, 500, 96)      21600       concatenate_3[0][0]              
__________________________________________________________________________________________________
conv1d_23 (Conv1D)              (None, 500, 64)      3136        conv1d_22[0][0]                  
__________________________________________________________________________________________________
conv1d_25 (Conv1D)              (None, 500, 32)      2592        conv1d_24[0][0]                  
__________________________________________________________________________________________________
conv1d_26 (Conv1D)              (None, 500, 32)      7200        max_pooling1d_6[0][0]            
__________________________________________________________________________________________________
concatenate_4 (Concatenate)     (None, 500, 224)     0           conv1d_21[0][0]                  
                                                                 conv1d_23[0][0]                  
                                                                 conv1d_25[0][0]                  
                                                                 conv1d_26[0][0]                  
__________________________________________________________________________________________________
batch_normalization_4 (BatchNor (None, 500, 224)     896         concatenate_4[0][0]              
__________________________________________________________________________________________________
max_pooling1d_7 (MaxPooling1D)  (None, 125, 224)     0           batch_normalization_4[0][0]      
__________________________________________________________________________________________________
flatten_1 (Flatten)             (None, 28000)        0           max_pooling1d_7[0][0]            
__________________________________________________________________________________________________
dense_1 (Dense)                 (None, 8)            224008      flatten_1[0][0]                  
__________________________________________________________________________________________________
dense_2 (Dense)                 (None, 8)            224008      flatten_1[0][0]                  
__________________________________________________________________________________________________
out_snr (Dense)                 (None, 1)            9           dense_1[0][0]                    
__________________________________________________________________________________________________
out_bool (Dense)                (None, 2)            18          dense_2[0][0]                    
==================================================================================================
Total params: 761,251
Trainable params: 760,391
Non-trainable params: 860
__________________________________________________________________________________________________


loss:
	last_training: (75, 6.307473430633545)
	min_training: (69, 4.314418848855155)
…
###############################################################################


training:
	time_start: 27.3.2019: 14:48.29
	time_end: 27.3.2019: 15:8.49

loss:
	last_training: (100, 24.64520263671875)
	min_training: (85, 16.49364471435547)
	min_testing: (85, 18.916873931884766)
	last_testing: (100, 26.752965927124023)

network: 
__________________________________________________________________________________________________
Layer (type)                    Output Shape         Param #     Connected to                     
==================================================================================================
input_1 (InputLayer)            (None, 4096, 14)     0                                            
__________________________________________________________________________________________________
batch_normalization_1 (BatchNor (None, 4096, 14)     56          input_1[0][0]                    
__________________________________________________________________________________________________
conv1d_1 (Conv1D)               (None, 4081, 32)     7200        batch_normalization_1[0][0]      
__________________________________________________________________________________________________
batch_normalization_2 (BatchNor (None, 4081, 32)     128         conv1d_1[0][0]                   
__________________________________________________________________________________________________
activation_1 (Activation)       (None, 4081, 32)     0           batch_normalization_2[0][0]      
__________________________________________________________________________________________________
max_pooling1d_1 (MaxPooling1D)  (None, 1020, 32)     0           activation_1[0][0]               
__________________________________________________________________________________________________
conv1d_2 (Conv1D)               (None, 1005, 64)     32832       max_pooling1d_1[0][0]            
__________________________________________________________________________________________________
batch_normalization_3 (BatchNor (None, 1005, 64)     256         conv1d_2[0][0]                   
__________________________________________________________________________________________________
activation_2 (Activation)       (None, 1005, 64)     0           batch_normalization_3[0][0]      
__________________________________________________________________________________________________
max_pooling1d_2 (MaxPooling1D)  (None, 251, 64)      0           activation_2[0][0]               
__________________________________________________________________________________________________
conv1d_3 (Conv1D)               (None, 236, 128)     131200      max_pooling1d_2[0][0]            
__________________________________________________________________________________________________
batch_normalization_4 (BatchNor (None, 236, 128)     512         conv1d_3[0][0]                   
__________________________________________________________________________________________________
activation_3 (Activation)       (None, 236, 128)     0           batch_normalization_4[0][0]      
__________________________________________________________________________________________________
max_pooling1d_4 (MaxPooling1D)  (None, 59, 128)      0           activation_3[0][0]               
__________________________________________________________________________________________________
flatten_1 (Flatten)             (None, 7552)         0           max_pooling1d_4[0][0]            
__________________________________________________________________________________________________
dropout_1 (Dropout)             (None, 7552)         0           flatten_1[0][0]                  
__________________________________________________________________________________________________
dropout_3 (Dropout)             (None, 7552)         0           flatten_1[0][0]                  
__________________________________________________________________________________________________
dense_1 (Dense)                 (None, 64)           483392      dropout_1[0][0]                  
__________________________________________________________________________________________________
dense_2 (Dense)                 (None, 16)           120848      dropout_3[0][0]                  
__________________________________________________________________________________________________
dropout_2 (Dropout)             (None, 64)           0           dense_1[0][0]                    
__________________________________________________________________________________________________
dropout_4 (Dropout)             (None, 16)           0           dense_2[0][0]                    
__________________________________________________________________________________________________
out_snr (Dense)                 (None, 1)            65          dropout_2[0][0]                  
__________________________________________________________________________________________________
out_bool (Dense)                (None, 2)            34          dropout_4[0][0]                  
==================================================================================================
Total params: 776,523
Trainable params: 776,047
Non-trainable params: 476
__________________________________________________________________________________________________


loss:
	last_training: (100, 24.64520263671875)
	min_training: (85, 16.49364471435547)
…
###############################################################################


training:
	time_start: 1.4.2019: 12:42.38
	time_end: 1.4.2019: 14:40.59

loss:
	last_training: (1000, 0.46060260767936706)
	min_training: (960, 0.1677433282852173)
	min_testing: (980, 4.779068607330323)
	last_testing: (1000, 5.439239907400949)

network: 
__________________________________________________________________________________________________
Layer (type)                    Output Shape         Param #     Connected to                     
==================================================================================================
input_1 (InputLayer)            (None, 4096, 14)     0                                            
__________________________________________________________________________________________________
batch_normalization_1 (BatchNor (None, 4096, 14)     56          input_1[0][0]                    
__________________________________________________________________________________________________
conv1d_1 (Conv1D)               (None, 4081, 32)     7200        batch_normalization_1[0][0]      
__________________________________________________________________________________________________
batch_normalization_2 (BatchNor (None, 4081, 32)     128         conv1d_1[0][0]                   
__________________________________________________________________________________________________
activation_1 (Activation)       (None, 4081, 32)     0           batch_normalization_2[0][0]      
__________________________________________________________________________________________________
max_pooling1d_1 (MaxPooling1D)  (None, 1020, 32)     0           activation_1[0][0]               
__________________________________________________________________________________________________
conv1d_2 (Conv1D)               (None, 1005, 64)     32832       max_pooling1d_1[0][0]            
__________________________________________________________________________________________________
batch_normalization_3 (BatchNor (None, 1005, 64)     256         conv1d_2[0][0]                   
__________________________________________________________________________________________________
activation_2 (Activation)       (None, 1005, 64)     0           batch_normalization_3[0][0]      
__________________________________________________________________________________________________
max_pooling1d_2 (MaxPooling1D)  (None, 251, 64)      0           activation_2[0][0]               
__________________________________________________________________________________________________
conv1d_3 (Conv1D)               (None, 236, 128)     131200      max_pooling1d_2[0][0]            
__________________________________________________________________________________________________
batch_normalization_4 (BatchNor (None, 236, 128)     512         conv1d_3[0][0]                   
__________________________________________________________________________________________________
activation_3 (Activation)       (None, 236, 128)     0           batch_normalization_4[0][0]      
__________________________________________________________________________________________________
conv1d_4 (Conv1D)               (None, 221, 256)     524544      activation_3[0][0]               
__________________________________________________________________________________________________
batch_normalization_5 (BatchNor (None, 221, 256)     1024        conv1d_4[0][0]                   
__________________________________________________________________________________________________
activation_4 (Activation)       (None, 221, 256)     0           batch_normalization_5[0][0]      
__________________________________________________________________________________________________
max_pooling1d_4 (MaxPooling1D)  (None, 55, 256)      0           activation_4[0][0]               
__________________________________________________________________________________________________
flatten_1 (Flatten)             (None, 14080)        0           max_pooling1d_4[0][0]            
__________________________________________________________________________________________________
dropout_1 (Dropout)             (None, 14080)        0           flatten_1[0][0]                  
__________________________________________________________________________________________________
dropout_3 (Dropout)             (None, 14080)        0           flatten_1[0][0]                  
__________________________________________________________________________________________________
dense_1 (Dense)                 (None, 64)           901184      dropout_1[0][0]                  
__________________________________________________________________________________________________
dense_2 (Dense)                 (None, 16)           225296      dropout_3[0][0]                  
__________________________________________________________________________________________________
dropout_2 (Dropout)             (None, 64)           0           dense_1[0][0]                    
__________________________________________________________________________________________________
dropout_4 (Dropout)             (None, 16)           0           dense_2[0][0]                    
__________________________________________________________________________________________________
out_snr (Dense)                 (None, 1)            65          dropout_2[0][0]                  
__________________________________________________________________________________________________
out_bool (Dense)                (None, 2)            34          dropout_4[0][0]                  
==================================================================================================
Total params: 1,824,331
Trainable params: 1,823,343
Non-trainable params: 988
__________________________________________________________________________________________________


loss:
	last_training: (1000, 0.46060260767936706)
	min_training: (960, 0.1677433282852173)
…
