training:
	time_start: 16.1.2019: 14:11.49
	time_end: 16.1.2019: 17:30.34

loss:
	last_training: (50, 1.8375144878114973)
	min_training: (45, 1.2744179226330348)
	min_testing: (40, 1.6237056741714477)
	last_testing: (50, 2.3519230295817057)

network: 
_________________________________________________________________
Layer (type)                 Output Shape              Param #   
=================================================================
conv1d_1 (Conv1D)            (None, 4081, 64)          1088      
_________________________________________________________________
max_pooling1d_1 (MaxPooling1 (None, 1020, 64)          0         
_________________________________________________________________
activation_1 (Activation)    (None, 1020, 64)          0         
_________________________________________________________________
conv1d_2 (Conv1D)            (None, 1005, 128)         131200    
_________________________________________________________________
max_pooling1d_2 (MaxPooling1 (None, 251, 128)          0         
_________________________________________________________________
activation_2 (Activation)    (None, 251, 128)          0         
_________________________________________________________________
conv1d_3 (Conv1D)            (None, 236, 256)          524544    
_________________________________________________________________
max_pooling1d_3 (MaxPooling1 (None, 59, 256)           0         
_________________________________________________________________
activation_3 (Activation)    (None, 59, 256)           0         
_________________________________________________________________
conv1d_4 (Conv1D)            (None, 52, 512)           1049088   
_________________________________________________________________
max_pooling1d_4 (MaxPooling1 (None, 13, 512)           0         
_________________________________________________________________
dropout_1 (Dropout)          (None, 13, 512)           0         
_________________________________________________________________
activation_4 (Activation)    (None, 13, 512)           0         
_________________________________________________________________
flatten_1 (Flatten)          (None, 6656)              0         
_________________________________________________________________
dense_1 (Dense)              (None, 128)               852096    
_________________________________________________________________
dropout_2 (Dropout)          (None, 128)               0         
_________________________________________________________________
dense_2 (Dense)              (None, 64)                8256      
_________________________________________________________________
dropout_3 (Dropout)          (None, 64)                0         
_________________________________________________________________
dense_3 (Dense)              (None, 1)                 65        
=================================================================
Total params: 2,566,337
Trainable params: 2,566,337
Non-trainable params: 0
_________________________________________________________________


loss:
	last_training: (50, 1.8375144878114973)
	min_training: (45, 1.2744179226330348)
	min_testing: (40, 1.6237056741714477)
	last_testing: (50, 2.3519230295817057)

template_properties:
…
	time_end: 16.1.2019: 14:11.49

ignored_errors: False

###############################################################################


training:
	time_start: 16.1.2019: 17:37.49
	time_end: 16.1.2019: 18:6.4

loss:
	last_training: (50, 0.6140902113233294)
	min_training: (50, 0.6140902113233294)
	min_testing: (25, 1.0710109768595015)
	last_testing: (50, 1.4999530328114827)

network: 
_________________________________________________________________
Layer (type)                 Output Shape              Param #   
=================================================================
conv1d_1 (Conv1D)            (None, 4081, 16)          272       
_________________________________________________________________
max_pooling1d_1 (MaxPooling1 (None, 1020, 16)          0         
_________________________________________________________________
activation_1 (Activation)    (None, 1020, 16)          0         
_________________________________________________________________
conv1d_2 (Conv1D)            (None, 1005, 32)          8224      
_________________________________________________________________
max_pooling1d_2 (MaxPooling1 (None, 251, 32)           0         
_________________________________________________________________
activation_2 (Activation)    (None, 251, 32)           0         
_________________________________________________________________
conv1d_3 (Conv1D)            (None, 236, 64)           32832     
_________________________________________________________________
max_pooling1d_3 (MaxPooling1 (None, 59, 64)            0         
_________________________________________________________________
activation_3 (Activation)    (None, 59, 64)            0         
_________________________________________________________________
flatten_1 (Flatten)          (None, 3776)              0         
_________________________________________________________________
dropout_1 (Dropout)          (None, 3776)              0         
_________________________________________________________________
dense_1 (Dense)              (None, 64)                241728    
_________________________________________________________________
dropout_2 (Dropout)          (None, 64)                0         
_________________________________________________________________
dense_2 (Dense)              (None, 1)                 65        
=================================================================
Total params: 283,121
Trainable params: 283,121
Non-trainable params: 0
_________________________________________________________________


loss:
	last_training: (50, 0.6140902113233294)
	min_training: (50, 0.6140902113233294)
	min_testing: (25, 1.0710109768595015)
	last_testing: (50, 1.4999530328114827)

template_properties:
…
	time_end: 16.1.2019: 17:37.49

ignored_errors: False
###############################################################################


training:
	time_start: 16.1.2019: 20:57.1
	time_end: 16.1.2019: 22:0.24

loss:
	last_training: (100, 0.2016516843523298)
	min_training: (60, 0.18955723192010607)
	min_testing: (15, 1.2931889291490828)
	last_testing: (100, 1.5886057392756143)

network: 
_________________________________________________________________
Layer (type)                 Output Shape              Param #   
=================================================================
conv1d_1 (Conv1D)            (None, 4081, 16)          272       
_________________________________________________________________
batch_normalization_1 (Batch (None, 4081, 16)          64        
_________________________________________________________________
activation_1 (Activation)    (None, 4081, 16)          0         
_________________________________________________________________
max_pooling1d_1 (MaxPooling1 (None, 1020, 16)          0         
_________________________________________________________________
conv1d_2 (Conv1D)            (None, 1005, 32)          8224      
_________________________________________________________________
batch_normalization_2 (Batch (None, 1005, 32)          128       
_________________________________________________________________
activation_2 (Activation)    (None, 1005, 32)          0         
_________________________________________________________________
max_pooling1d_2 (MaxPooling1 (None, 251, 32)           0         
_________________________________________________________________
conv1d_3 (Conv1D)            (None, 236, 64)           32832     
_________________________________________________________________
batch_normalization_3 (Batch (None, 236, 64)           256       
_________________________________________________________________
activation_3 (Activation)    (None, 236, 64)           0         
_________________________________________________________________
max_pooling1d_3 (MaxPooling1 (None, 59, 64)            0         
_________________________________________________________________
flatten_1 (Flatten)          (None, 3776)              0         
_________________________________________________________________
dropout_1 (Dropout)          (None, 3776)              0         
_________________________________________________________________
dense_1 (Dense)              (None, 64)                241728    
_________________________________________________________________
dropout_2 (Dropout)          (None, 64)                0         
_________________________________________________________________
dense_2 (Dense)              (None, 1)                 65        
=================================================================
Total params: 283,569
Trainable params: 283,345
Non-trainable params: 224
_________________________________________________________________


loss:
	last_training: (100, 0.2016516843523298)
	min_training: (60, 0.18955723192010607)
	min_testing: (15, 1.2931889291490828)
	last_testing: (100, 1.5886057392756143)

template_properties:
…
	time_end: 16.1.2019: 20:57.1

ignored_errors: False

###############################################################################


training:
	time_start: 16.1.2019: 22:4.22
	time_end: 16.1.2019: 23:16.20

loss:
	last_training: (100, 0.11280306880814689)
	min_training: (100, 0.11280306880814689)
	min_testing: (15, 0.927447163786207)
	last_testing: (100, 1.2318860138257344)

network: 
_________________________________________________________________
Layer (type)                 Output Shape              Param #   
=================================================================
conv1d_1 (Conv1D)            (None, 4081, 16)          272       
_________________________________________________________________
batch_normalization_1 (Batch (None, 4081, 16)          64        
_________________________________________________________________
activation_1 (Activation)    (None, 4081, 16)          0         
_________________________________________________________________
max_pooling1d_1 (MaxPooling1 (None, 1020, 16)          0         
_________________________________________________________________
dropout_1 (Dropout)          (None, 1020, 16)          0         
_________________________________________________________________
conv1d_2 (Conv1D)            (None, 1005, 32)          8224      
_________________________________________________________________
batch_normalization_2 (Batch (None, 1005, 32)          128       
_________________________________________________________________
activation_2 (Activation)    (None, 1005, 32)          0         
_________________________________________________________________
max_pooling1d_2 (MaxPooling1 (None, 251, 32)           0         
_________________________________________________________________
dropout_2 (Dropout)          (None, 251, 32)           0         
_________________________________________________________________
conv1d_3 (Conv1D)            (None, 236, 64)           32832     
_________________________________________________________________
batch_normalization_3 (Batch (None, 236, 64)           256       
_________________________________________________________________
activation_3 (Activation)    (None, 236, 64)           0         
_________________________________________________________________
max_pooling1d_3 (MaxPooling1 (None, 59, 64)            0         
_________________________________________________________________
dropout_3 (Dropout)          (None, 59, 64)            0         
_________________________________________________________________
conv1d_4 (Conv1D)            (None, 52, 128)           65664     
_________________________________________________________________
batch_normalization_4 (Batch (None, 52, 128)           512       
_________________________________________________________________
activation_4 (Activation)    (None, 52, 128)           0         
_________________________________________________________________
max_pooling1d_4 (MaxPooling1 (None, 13, 128)           0         
_________________________________________________________________
dropout_4 (Dropout)          (None, 13, 128)           0         
_________________________________________________________________
flatten_1 (Flatten)          (None, 1664)              0         
_________________________________________________________________
dense_1 (Dense)              (None, 64)                106560    
_________________________________________________________________
dropout_5 (Dropout)          (None, 64)                0         
_________________________________________________________________
dense_2 (Dense)              (None, 1)                 65        
=================================================================
Total params: 214,577
Trainable params: 214,097
Non-trainable params: 480
_________________________________________________________________


loss:
	last_training: (100, 0.11280306880814689)
	min_training: (100, 0.11280306880814689)
	min_testing: (15, 0.927447163786207)
	last_testing: (100, 1.2318860138257344)

template_properties:
…
	time_end: 17.1.2019: 4:31.8

ignored_errors: False

###############################################################################


training:
	time_start: 17.1.2019: 10:31.57
	time_end: 17.1.2019: 12:56.31

loss:
	last_training: (30, 1.2277990203130813)
	min_training: (25, 0.541137604372842)
	min_testing: (10, 0.9027774206797282)
	last_testing: (30, 1.996567464404636)

network: 
_________________________________________________________________
Layer (type)                 Output Shape              Param #   
=================================================================
conv1d_1 (Conv1D)            (None, 4081, 16)          272       
_________________________________________________________________
batch_normalization_1 (Batch (None, 4081, 16)          64        
_________________________________________________________________
activation_1 (Activation)    (None, 4081, 16)          0         
_________________________________________________________________
max_pooling1d_1 (MaxPooling1 (None, 1020, 16)          0         
_________________________________________________________________
conv1d_2 (Conv1D)            (None, 1005, 32)          8224      
_________________________________________________________________
batch_normalization_2 (Batch (None, 1005, 32)          128       
_________________________________________________________________
activation_2 (Activation)    (None, 1005, 32)          0         
_________________________________________________________________
max_pooling1d_2 (MaxPooling1 (None, 251, 32)           0         
_________________________________________________________________
dropout_1 (Dropout)          (None, 251, 32)           0         
_________________________________________________________________
conv1d_3 (Conv1D)            (None, 236, 64)           32832     
_________________________________________________________________
batch_normalization_3 (Batch (None, 236, 64)           256       
_________________________________________________________________
activation_3 (Activation)    (None, 236, 64)           0         
_________________________________________________________________
max_pooling1d_3 (MaxPooling1 (None, 59, 64)            0         
_________________________________________________________________
dropout_2 (Dropout)          (None, 59, 64)            0         
_________________________________________________________________
conv1d_4 (Conv1D)            (None, 52, 128)           65664     
_________________________________________________________________
batch_normalization_4 (Batch (None, 52, 128)           512       
_________________________________________________________________
activation_4 (Activation)    (None, 52, 128)           0         
_________________________________________________________________
max_pooling1d_4 (MaxPooling1 (None, 13, 128)           0         
_________________________________________________________________
dropout_3 (Dropout)          (None, 13, 128)           0         
_________________________________________________________________
flatten_1 (Flatten)          (None, 1664)              0         
_________________________________________________________________
dense_1 (Dense)              (None, 64)                106560    
_________________________________________________________________
dropout_4 (Dropout)          (None, 64)                0         
_________________________________________________________________
dense_2 (Dense)              (None, 1)                 65        
=================================================================
Total params: 214,577
Trainable params: 214,097
Non-trainable params: 480
_________________________________________________________________

comment:
    Dropoutrate 0.1 for 1, 2  and 0.25 for 3, 4

loss:
	last_training: (30, 1.2277990203130813)
	min_training: (25, 0.541137604372842)
	min_testing: (10, 0.9027774206797282)
	last_testing: (30, 1.996567464404636)
…
	time_end: 17.1.2019: 10:31.57

ignored_errors: False

###############################################################################


training:
	time_start: 18.1.2019: 5:16.32
	time_end: 18.1.2019: 12:4.50

loss:
	last_training: (50, 0.7587684303465344)
	min_training: (50, 0.7587684303465344)
	min_testing: (5, 2.2288101793924966)
	last_testing: (50, 2.7052553862465754)

network: 
_________________________________________________________________
Layer (type)                 Output Shape              Param #   
=================================================================
conv1d_1 (Conv1D)            (None, 4081, 16)          272       
_________________________________________________________________
batch_normalization_1 (Batch (None, 4081, 16)          16324     
_________________________________________________________________
activation_1 (Activation)    (None, 4081, 16)          0         
_________________________________________________________________
max_pooling1d_1 (MaxPooling1 (None, 1020, 16)          0         
_________________________________________________________________
conv1d_2 (Conv1D)            (None, 1005, 32)          8224      
_________________________________________________________________
batch_normalization_2 (Batch (None, 1005, 32)          4020      
_________________________________________________________________
activation_2 (Activation)    (None, 1005, 32)          0         
_________________________________________________________________
max_pooling1d_2 (MaxPooling1 (None, 251, 32)           0         
_________________________________________________________________
dropout_1 (Dropout)          (None, 251, 32)           0         
_________________________________________________________________
conv1d_3 (Conv1D)            (None, 236, 64)           32832     
_________________________________________________________________
batch_normalization_3 (Batch (None, 236, 64)           944       
_________________________________________________________________
activation_3 (Activation)    (None, 236, 64)           0         
_________________________________________________________________
max_pooling1d_3 (MaxPooling1 (None, 59, 64)            0         
_________________________________________________________________
dropout_2 (Dropout)          (None, 59, 64)            0         
_________________________________________________________________
conv1d_4 (Conv1D)            (None, 52, 128)           65664     
_________________________________________________________________
batch_normalization_4 (Batch (None, 52, 128)           208       
_________________________________________________________________
activation_4 (Activation)    (None, 52, 128)           0         
_________________________________________________________________
max_pooling1d_4 (MaxPooling1 (None, 13, 128)           0         
_________________________________________________________________
dropout_3 (Dropout)          (None, 13, 128)           0         
_________________________________________________________________
flatten_1 (Flatten)          (None, 1664)              0         
_________________________________________________________________
dense_1 (Dense)              (None, 64)                106560    
_________________________________________________________________
dropout_4 (Dropout)          (None, 64)                0         
_________________________________________________________________
dense_2 (Dense)              (None, 1)                 65        
=================================================================
Total params: 235,113
Trainable params: 224,365
Non-trainable params: 10,748
_________________________________________________________________

comment:
    Dropout rates (0.1, 0.1, 0.25, 0.25)
    Batch normalization: axis=1

loss:
	last_training: (50, 0.7587684303465344)
	min_training: (50, 0.7587684303465344)
	min_testing: (5, 2.2288101793924966)
…
