training:
	time_start: 23.1.2019: 15:56.21
	time_end: 23.1.2019: 16:11.15

loss:
	last_training: (20, 6.172486553737095)
	min_training: (5, 2.0963033011300225)
	min_testing: (5, 2.0963033011300225)
	last_testing: (20, 7.477160561879476)

network: 
_________________________________________________________________
Layer (type)                 Output Shape              Param #   
=================================================================
conv1d_1 (Conv1D)            (None, 4081, 16)          528       
_________________________________________________________________
batch_normalization_1 (Batch (None, 4081, 16)          64        
_________________________________________________________________
activation_1 (Activation)    (None, 4081, 16)          0         
_________________________________________________________________
max_pooling1d_1 (MaxPooling1 (None, 1020, 16)          0         
_________________________________________________________________
conv1d_2 (Conv1D)            (None, 1005, 32)          8224      
_________________________________________________________________
batch_normalization_2 (Batch (None, 1005, 32)          128       
_________________________________________________________________
activation_2 (Activation)    (None, 1005, 32)          0         
_________________________________________________________________
max_pooling1d_2 (MaxPooling1 (None, 251, 32)           0         
_________________________________________________________________
dropout_1 (Dropout)          (None, 251, 32)           0         
_________________________________________________________________
conv1d_3 (Conv1D)            (None, 236, 64)           32832     
_________________________________________________________________
batch_normalization_3 (Batch (None, 236, 64)           256       
_________________________________________________________________
activation_3 (Activation)    (None, 236, 64)           0         
_________________________________________________________________
max_pooling1d_3 (MaxPooling1 (None, 59, 64)            0         
_________________________________________________________________
dropout_2 (Dropout)          (None, 59, 64)            0         
_________________________________________________________________
conv1d_4 (Conv1D)            (None, 52, 128)           65664     
_________________________________________________________________
batch_normalization_4 (Batch (None, 52, 128)           512       
_________________________________________________________________
activation_4 (Activation)    (None, 52, 128)           0         
_________________________________________________________________
max_pooling1d_4 (MaxPooling1 (None, 13, 128)           0         
_________________________________________________________________
dropout_3 (Dropout)          (None, 13, 128)           0         
_________________________________________________________________
flatten_1 (Flatten)          (None, 1664)              0         
_________________________________________________________________
dense_1 (Dense)              (None, 64)                106560    
_________________________________________________________________
dropout_4 (Dropout)          (None, 64)                0         
_________________________________________________________________
dense_2 (Dense)              (None, 1)                 65        
=================================================================
Total params: 214,833
Trainable params: 214,353
Non-trainable params: 480
_________________________________________________________________


loss:
	last_training: (20, 6.172486553737095)
	min_training: (5, 2.0963033011300225)
	min_testing: (5, 2.0963033011300225)
	last_testing: (20, 7.477160561879476)

template_properties:
…
