training:
	time_start: 23.1.2019: 15:56.21
	time_end: 23.1.2019: 16:11.15

loss:
	last_training: (20, 6.172486553737095)
	min_training: (5, 2.0963033011300225)
	min_testing: (5, 2.0963033011300225)
	last_testing: (20, 7.477160561879476)

network: 
_________________________________________________________________
Layer (type)                 Output Shape              Param #   
=================================================================
conv1d_1 (Conv1D)            (None, 4081, 16)          528       
_________________________________________________________________
batch_normalization_1 (Batch (None, 4081, 16)          64        
_________________________________________________________________
activation_1 (Activation)    (None, 4081, 16)          0         
_________________________________________________________________
max_pooling1d_1 (MaxPooling1 (None, 1020, 16)          0         
_________________________________________________________________
conv1d_2 (Conv1D)            (None, 1005, 32)          8224      
_________________________________________________________________
batch_normalization_2 (Batch (None, 1005, 32)          128       
_________________________________________________________________
activation_2 (Activation)    (None, 1005, 32)          0         
_________________________________________________________________
max_pooling1d_2 (MaxPooling1 (None, 251, 32)           0         
_________________________________________________________________
dropout_1 (Dropout)          (None, 251, 32)           0         
_________________________________________________________________
conv1d_3 (Conv1D)            (None, 236, 64)           32832     
_________________________________________________________________
batch_normalization_3 (Batch (None, 236, 64)           256       
_________________________________________________________________
activation_3 (Activation)    (None, 236, 64)           0         
_________________________________________________________________
max_pooling1d_3 (MaxPooling1 (None, 59, 64)            0         
_________________________________________________________________
dropout_2 (Dropout)          (None, 59, 64)            0         
_________________________________________________________________
conv1d_4 (Conv1D)            (None, 52, 128)           65664     
_________________________________________________________________
batch_normalization_4 (Batch (None, 52, 128)           512       
_________________________________________________________________
activation_4 (Activation)    (None, 52, 128)           0         
_________________________________________________________________
max_pooling1d_4 (MaxPooling1 (None, 13, 128)           0         
_________________________________________________________________
dropout_3 (Dropout)          (None, 13, 128)           0         
_________________________________________________________________
flatten_1 (Flatten)          (None, 1664)              0         
_________________________________________________________________
dense_1 (Dense)              (None, 64)                106560    
_________________________________________________________________
dropout_4 (Dropout)          (None, 64)                0         
_________________________________________________________________
dense_2 (Dense)              (None, 1)                 65        
=================================================================
Total params: 214,833
Trainable params: 214,353
Non-trainable params: 480
_________________________________________________________________


loss:
	last_training: (20, 6.172486553737095)
	min_training: (5, 2.0963033011300225)
	min_testing: (5, 2.0963033011300225)
	last_testing: (20, 7.477160561879476)

template_properties:
…
	time_end: 23.1.2019: 23:4.20

ignored_errors: False

###############################################################################


training:
	time_start: 24.1.2019: 12:12.30
	time_end: 24.1.2019: 16:15.55

loss:
	last_training: (150, 0.824635732786996)
	min_training: (135, 0.18171629648549217)
	min_testing: (135, 2.0971523447036744)
	last_testing: (150, 2.545431274731954)

network: 
_________________________________________________________________
Layer (type)                 Output Shape              Param #   
=================================================================
conv1d_1 (Conv1D)            (None, 4081, 16)          528       
_________________________________________________________________
batch_normalization_1 (Batch (None, 4081, 16)          64        
_________________________________________________________________
activation_1 (Activation)    (None, 4081, 16)          0         
_________________________________________________________________
max_pooling1d_1 (MaxPooling1 (None, 1020, 16)          0         
_________________________________________________________________
conv1d_2 (Conv1D)            (None, 1005, 32)          8224      
_________________________________________________________________
batch_normalization_2 (Batch (None, 1005, 32)          128       
_________________________________________________________________
activation_2 (Activation)    (None, 1005, 32)          0         
_________________________________________________________________
max_pooling1d_2 (MaxPooling1 (None, 251, 32)           0         
_________________________________________________________________
conv1d_3 (Conv1D)            (None, 236, 64)           32832     
_________________________________________________________________
batch_normalization_3 (Batch (None, 236, 64)           256       
_________________________________________________________________
activation_3 (Activation)    (None, 236, 64)           0         
_________________________________________________________________
max_pooling1d_3 (MaxPooling1 (None, 59, 64)            0         
_________________________________________________________________
dropout_1 (Dropout)          (None, 59, 64)            0         
_________________________________________________________________
conv1d_4 (Conv1D)            (None, 52, 128)           65664     
_________________________________________________________________
batch_normalization_4 (Batch (None, 52, 128)           512       
_________________________________________________________________
activation_4 (Activation)    (None, 52, 128)           0         
_________________________________________________________________
max_pooling1d_4 (MaxPooling1 (None, 13, 128)           0         
_________________________________________________________________
dropout_2 (Dropout)          (None, 13, 128)           0         
_________________________________________________________________
flatten_1 (Flatten)          (None, 1664)              0         
_________________________________________________________________
dense_1 (Dense)              (None, 64)                106560    
_________________________________________________________________
dropout_3 (Dropout)          (None, 64)                0         
_________________________________________________________________
dense_2 (Dense)              (None, 1)                 65        
=================================================================
Total params: 214,833
Trainable params: 214,353
Non-trainable params: 480
_________________________________________________________________


loss:
	last_training: (150, 0.824635732786996)
	min_training: (135, 0.18171629648549217)
	min_testing: (135, 2.0971523447036744)
	last_testing: (150, 2.545431274731954)

template_properties:
…
	time_end: 24.1.2019: 12:12.30

ignored_errors: False

###############################################################################


training:
	time_start: 24.1.2019: 23:42.50
	time_end: 25.1.2019: 6:29.32

loss:
	last_training: (150, 1.5524979741232736)
	min_training: (115, 0.3495133076735905)
	min_testing: (15, 2.727667425473531)
	last_testing: (150, 4.244217447280883)

network: 
_________________________________________________________________
Layer (type)                 Output Shape              Param #   
=================================================================
conv1d_1 (Conv1D)            (None, 4081, 16)          528       
_________________________________________________________________
batch_normalization_1 (Batch (None, 4081, 16)          16324     
_________________________________________________________________
activation_1 (Activation)    (None, 4081, 16)          0         
_________________________________________________________________
max_pooling1d_1 (MaxPooling1 (None, 1020, 16)          0         
_________________________________________________________________
conv1d_2 (Conv1D)            (None, 1005, 32)          8224      
_________________________________________________________________
batch_normalization_2 (Batch (None, 1005, 32)          4020      
_________________________________________________________________
activation_2 (Activation)    (None, 1005, 32)          0         
_________________________________________________________________
max_pooling1d_2 (MaxPooling1 (None, 251, 32)           0         
_________________________________________________________________
conv1d_3 (Conv1D)            (None, 236, 64)           32832     
_________________________________________________________________
batch_normalization_3 (Batch (None, 236, 64)           944       
_________________________________________________________________
activation_3 (Activation)    (None, 236, 64)           0         
_________________________________________________________________
max_pooling1d_3 (MaxPooling1 (None, 59, 64)            0         
_________________________________________________________________
dropout_1 (Dropout)          (None, 59, 64)            0         
_________________________________________________________________
conv1d_4 (Conv1D)            (None, 52, 128)           65664     
_________________________________________________________________
batch_normalization_4 (Batch (None, 52, 128)           208       
_________________________________________________________________
activation_4 (Activation)    (None, 52, 128)           0         
_________________________________________________________________
max_pooling1d_4 (MaxPooling1 (None, 13, 128)           0         
_________________________________________________________________
dropout_2 (Dropout)          (None, 13, 128)           0         
_________________________________________________________________
flatten_1 (Flatten)          (None, 1664)              0         
_________________________________________________________________
dense_1 (Dense)              (None, 64)                106560    
_________________________________________________________________
dropout_3 (Dropout)          (None, 64)                0         
_________________________________________________________________
dense_2 (Dense)              (None, 1)                 65        
=================================================================
Total params: 235,369
Trainable params: 224,621
Non-trainable params: 10,748
_________________________________________________________________


loss:
	last_training: (150, 1.5524979741232736)
	min_training: (115, 0.3495133076735905)
	min_testing: (15, 2.727667425473531)
	last_testing: (150, 4.244217447280883)

template_properties:
…
	time_end: 24.1.2019: 23:42.50

ignored_errors: False

###############################################################################


training:
	time_start: 25.1.2019: 14:21.51
	time_end: 25.1.2019: 18:58.50

loss:
	last_training: (150, 2.8760353170122417)
	min_training: (70, 0.3368711291381291)
	min_testing: (70, 2.329401154836019)
	last_testing: (150, 4.743796300252279)

network: 
_________________________________________________________________
Layer (type)                 Output Shape              Param #   
=================================================================
conv1d_1 (Conv1D)            (None, 4081, 16)          528       
_________________________________________________________________
batch_normalization_1 (Batch (None, 4081, 16)          16324     
_________________________________________________________________
activation_1 (Activation)    (None, 4081, 16)          0         
_________________________________________________________________
max_pooling1d_1 (MaxPooling1 (None, 1020, 16)          0         
_________________________________________________________________
conv1d_2 (Conv1D)            (None, 1005, 32)          8224      
_________________________________________________________________
batch_normalization_2 (Batch (None, 1005, 32)          128       
_________________________________________________________________
activation_2 (Activation)    (None, 1005, 32)          0         
_________________________________________________________________
max_pooling1d_2 (MaxPooling1 (None, 251, 32)           0         
_________________________________________________________________
conv1d_3 (Conv1D)            (None, 236, 64)           32832     
_________________________________________________________________
batch_normalization_3 (Batch (None, 236, 64)           256       
_________________________________________________________________
activation_3 (Activation)    (None, 236, 64)           0         
_________________________________________________________________
max_pooling1d_3 (MaxPooling1 (None, 59, 64)            0         
_________________________________________________________________
dropout_1 (Dropout)          (None, 59, 64)            0         
_________________________________________________________________
conv1d_4 (Conv1D)            (None, 52, 128)           65664     
_________________________________________________________________
batch_normalization_4 (Batch (None, 52, 128)           512       
_________________________________________________________________
activation_4 (Activation)    (None, 52, 128)           0         
_________________________________________________________________
max_pooling1d_4 (MaxPooling1 (None, 13, 128)           0         
_________________________________________________________________
dropout_2 (Dropout)          (None, 13, 128)           0         
_________________________________________________________________
flatten_1 (Flatten)          (None, 1664)              0         
_________________________________________________________________
dense_1 (Dense)              (None, 64)                106560    
_________________________________________________________________
dropout_3 (Dropout)          (None, 64)                0         
_________________________________________________________________
dense_2 (Dense)              (None, 1)                 65        
=================================================================
Total params: 231,093
Trainable params: 222,483
Non-trainable params: 8,610
_________________________________________________________________


loss:
	last_training: (150, 2.8760353170122417)
	min_training: (70, 0.3368711291381291)
	min_testing: (70, 2.329401154836019)
	last_testing: (150, 4.743796300252279)

template_properties:
…
	time_end: 25.1.2019: 14:21.51

ignored_errors: False

###############################################################################


training:
	time_start: 26.1.2019: 12:23.29
	time_end: 26.1.2019: 19:21.43

loss:
	last_training: (150, 0.3537915734563555)
	min_training: (150, 0.3537915734563555)
	min_testing: (5, 9.520569677988687)
	last_testing: (150, 30.98087351989746)

network: 
_________________________________________________________________
Layer (type)                 Output Shape              Param #   
=================================================================
conv1d_1 (Conv1D)            (None, 4081, 64)          2112      
_________________________________________________________________
batch_normalization_1 (Batch (None, 4081, 64)          256       
_________________________________________________________________
permute_1 (Permute)          (None, 64, 4081)          0         
_________________________________________________________________
conv1d_2 (Conv1D)            (None, 61, 64)            1044800   
_________________________________________________________________
batch_normalization_2 (Batch (None, 61, 64)            256       
_________________________________________________________________
flatten_1 (Flatten)          (None, 3904)              0         
_________________________________________________________________
dropout_1 (Dropout)          (None, 3904)              0         
_________________________________________________________________
dense_1 (Dense)              (None, 128)               499840    
_________________________________________________________________
dropout_2 (Dropout)          (None, 128)               0         
_________________________________________________________________
dense_2 (Dense)              (None, 64)                8256      
_________________________________________________________________
dropout_3 (Dropout)          (None, 64)                0         
_________________________________________________________________
dense_3 (Dense)              (None, 1)                 65        
=================================================================
Total params: 1,555,585
Trainable params: 1,555,329
Non-trainable params: 256
_________________________________________________________________


loss:
	last_training: (150, 0.3537915734563555)
	min_training: (150, 0.3537915734563555)
	min_testing: (5, 9.520569677988687)
	last_testing: (150, 30.98087351989746)

template_properties:
…
	time_end: 26.1.2019: 12:23.29

ignored_errors: False
###############################################################################


training:
	time_start: 29.1.2019: 10:37.5
	time_end: 29.1.2019: 10:42.1

loss:
	last_training: (50, 14.48507948739188)
	min_training: (25, 9.607128873552595)
	min_testing: (5, 10.576653188069661)
	last_testing: (50, 17.096982549031576)

network: 
_________________________________________________________________
Layer (type)                 Output Shape              Param #   
=================================================================
conv1d_1 (Conv1D)            (None, 4081, 16)          528       
_________________________________________________________________
batch_normalization_1 (Batch (None, 4081, 16)          64        
_________________________________________________________________
activation_1 (Activation)    (None, 4081, 16)          0         
_________________________________________________________________
max_pooling1d_1 (MaxPooling1 (None, 1020, 16)          0         
_________________________________________________________________
conv1d_2 (Conv1D)            (None, 1005, 32)          8224      
_________________________________________________________________
batch_normalization_2 (Batch (None, 1005, 32)          128       
_________________________________________________________________
activation_2 (Activation)    (None, 1005, 32)          0         
_________________________________________________________________
max_pooling1d_2 (MaxPooling1 (None, 251, 32)           0         
_________________________________________________________________
conv1d_3 (Conv1D)            (None, 236, 64)           32832     
_________________________________________________________________
batch_normalization_3 (Batch (None, 236, 64)           256       
_________________________________________________________________
activation_3 (Activation)    (None, 236, 64)           0         
_________________________________________________________________
max_pooling1d_3 (MaxPooling1 (None, 59, 64)            0         
_________________________________________________________________
conv1d_4 (Conv1D)            (None, 52, 128)           65664     
_________________________________________________________________
batch_normalization_4 (Batch (None, 52, 128)           512       
_________________________________________________________________
activation_4 (Activation)    (None, 52, 128)           0         
_________________________________________________________________
max_pooling1d_4 (MaxPooling1 (None, 13, 128)           0         
_________________________________________________________________
dropout_1 (Dropout)          (None, 13, 128)           0         
_________________________________________________________________
flatten_1 (Flatten)          (None, 1664)              0         
_________________________________________________________________
dense_1 (Dense)              (None, 64)                106560    
_________________________________________________________________
dropout_2 (Dropout)          (None, 64)                0         
_________________________________________________________________
dense_2 (Dense)              (None, 1)                 65        
=================================================================
Total params: 214,833
Trainable params: 214,353
Non-trainable params: 480
_________________________________________________________________


loss:
	last_training: (50, 14.48507948739188)
	min_training: (25, 9.607128873552595)
	min_testing: (5, 10.576653188069661)
	last_testing: (50, 17.096982549031576)

template_properties:
…
